models/PyTorch_state_dict.pth (torch, 101090 bytes, 17 tensors)

network.0.weight f4 [128, 63]
00000000: 4515 b73d 79a2 453d a278 02be 330d 793d
00000010: 2148 1d3e f877 253e bf5f 073e 9db8 ecbc
00000020: b708 31bd dd03 42bd c10f b63b aa44 a5bd
00000030: 65e1 533d 5720 9dbd 2736 7cbc 1543 72bc
00000040: 03a1 203e 8e3e 0abe 7080 67bb 543c e5bd
00000050: 0bda e13d 3114 e4bd 1ef3 5b3d 9cfd bf3d
00000060: 3881 fe3c 2440 8dbd e63c 3dbd ec13 c53c
00000070: 4a06 953c 718f 8ebd 0e78 293d 72d7 553b
00000080: 6060 7b3d 9bd9 cabd 9baf c3bc 9cd1 883d
00000090: 01c0 7abd b83d aa3d 9ebc 43bc 2ae4 a03c
000000a0: 74c8 27bd 296f 013d 392a 88bd c1b8 b9ba
000000b0: 9df8 9fbc e27b c1bb d072 b9bd b234 afbc
000000c0: 922b be3d 446b 8c3c a3a2 de3d c4ed e2bb
000000d0: aac7 e0bc 1432 fd3c cc0a 7fbd 6a82 13be
000000e0: cd9d b8bd 0c6a 8abc a358 693d 330b a5bc
000000f0: 0e0a adbd 0162 dcbd a6c9 d13d 513b 3cbc
00000100: ed0e b7bd 15e0 bf3d 3dd4 113e 3e67 0cbd
00000110: 5112 e7bc f747 6abd 9a5a 63bd 50fd eebd
00000120: 9842 b9bd 61f0 1ebd cb50 da3b 245f 0dbe
00000130: 00d4 09bd 5165 603d de7c a8bd 5d74 b93d
00000140: 7afd 55bb 2059 033e 5df7 3cbc 0f5a ecbb
00000150: 8629 3c3d a3c6 ecbd d8b0 27bd bf95 adbd
00000160: 000f 023d 0520 9dbd a097 06bd 9b04 853d
00000170: 3fa3 41bd 08d3 553d 04c3 1f3e 821b 0dbd
00000180: c3af b1bd e907 c83d 37a5 2cbd 63ec a43d
00000190: e7cd 3abd 1214 c6ba 9464 333d c782 a83d
000001a0: 3561 ee3d 8de5 9bbd 72f9 21bd b87a 833d
000001b0: 13cf cb3d a43b 5f3d 63b2 143d efce c9bd
000001c0: 2289 e73c 70e8 fd3c a47d a23d 2234 b33c
000001d0: cd0b 9e3d 5af1 a73d 324f 94bd cb88 20bc
000001e0: 29c7 50bd b93f 75bc 3619 a33d a1f0 8cbc
000001f0: bfcf b4bd 38c4 83bd 8165 cb3d 54be b53d
00000200: cc96 ae3d d591 e13d fb5f 6fbd b19e 343d
00000210: 73cb b8bd 0c16 2d3d 8b93 b03d 0ccd 5dbd
00000220: 5e0d bfbc b778 343d b5bd d43d e6ad 88bd
00000230: d97e f0bc 058d cb3c 45a5 123e 0504 f6bd
00000240: 9aff cd3d 96ec 0f3d 6179 a2bc 361e efbd
00000250: d5b3 e5bd 2a08 9ebd 56e2 aa3d 917b 783d
00000260: 2666 9b3d abbd e6bd cd22 363d e3c7 54bb
00000270: c666 55bd 3307 4a3d a7c7 163c 82e3 c23c
00000280: 67d3 12be fc2c 1f3d db8f 743d 3044 93bd
00000290: e74f 8ebd 819f c73d 5244 f3bd 8359 f2bd
000002a0: 34f2 ad3d 58cb 08be 5df9 aebd 9e5b acbd
000002b0: c7f7 883d 2e9d 42bd de93 b5bd 5f53 013d
000002c0: d477 013d 7dcd e43c a7c3 e8bd 7bd6 ecbd
000002d0: ece7 33bc d4d3 64bd 7d1d 46bc e7ae 993d
000002e0: 6915 41bd 9dda db3d 539c 17bc 3434 f13c
000002f0: 55c7 e7bd 75e7 fdbd cb30 d7bd a6d7 a33d
00000300: 9879 61bd 63e7 d93c f4cc 463c 74f4 37bd
00000310: 1e14 04be e654 91bd 5665 333d 7f8b b8bc
00000320: 1552 d4bd 33a1 da3a ff5f ca3d d016 e1bb
00000330: 905f 01bd 9072 93bd 7714 313d 63a3 743d
00000340: 6e11 97bb 69a0 133d cc76 833c 90a8 aebc
00000350: b291 9c3d 4c86 af3d 5b4e c7bc 8ae5 3bbc
00000360: 2c98 a6bc 23ce cc3d 852b d9bd c997 903d
00000370: 84e9 9f3d fbf9 8dbd 3cd6 883d 94de 70bd
00000380: 6afb f2bd 8df0 cc3b bd29 81bd c98d e0bd
00000390: d016 e0bc 09b8 b53c d372 debd 34bd 1d3b
000003a0: 0394 02bd 988b 66bd 95ef a9bd 2607 063e
000003b0: a6d2 1d3d 25d5 b8bd b602 84bd 7b44 883d
000003c0: e161 9c3d 27ba 9f3d af52 6fbc b24d eebd
000003d0: e69e 633c 6413 f33c d3d4 1bbc 09dc c93c
000003e0: 40d0 653d 96db f63d abb5 cebd d9cb ac3d
000003f0: 293a 773d a86e 21bd f0bf fcbd ac5d adbd
0.08939604 0.04825065 -0.1274133 0.060803603 0.15359546 0.16159046 0.13220118 -0.028896624
-0.0432212 -0.047366966 0.005556077 -0.08069737 0.051728625 -0.07672184 -0.01539377 -0.014786501
0.15686421 -0.13500425 -0.0035324357 -0.11193147 0.110279165 -0.11136664 0.05369865 0.09374544
0.031067476 -0.068969995 -0.046200655 0.024057351 0.018191475 -0.06960953 0.04137426 0.0032629636
0.061371207 -0.09904786 -0.023887446 0.06680605 -0.061218265 0.08312553 -0.011946825 0.019640047
-0.04096265 0.03160015 -0.06648678 -0.0014169441 -0.019527728 -0.0059046606 -0.09055102 -0.021387432
0.09285654 0.017140992 0.10870864 -0.0069253165 -0.027438957 0.030907668 -0.062266156 -0.14405218
-0.09014473 -0.01689627 0.056969296 -0.020146942 -0.084491834 -0.1076088 0.102435395 -0.0114887515
-0.08938394 0.09368912 0.14241119 -0.034278147 -0.028206976 -0.057197537 -0.055506326 -0.11669409
-0.09045905 -0.038803462 0.0066624633 -0.13805825 -0.033649445 0.054784123 -0.082269415 0.09055398
-0.0032652305 0.12826967 -0.011533585 -0.0072128843 0.045938037 -0.115613244 -0.040940136 -0.084758274
0.031752586 -0.07672123 -0.032859445 0.06495019 -0.047274824 0.05220321 0.15601736 -0.03445006
-0.08676102 0.09767134 -0.04214975 0.080529 -0.04560652 -0.0015112183 0.04379709 0.08228069
0.116396345 -0.07612143 -0.03954453 0.06419891 0.09951606 0.054500237 0.036302935 -0.098539226
0.028263632 0.030994624 0.0793412 0.021875445 0.077170946 0.08200331 -0.07241668 -0.009798239
-0.050971184 -0.014968806 0.07963793 -0.017204585 -0.08828687 -0.0643391 0.0993147 0.08874193
0.08524856 0.110141434 -0.058441143 0.044096652 -0.0902318 0.042257354 0.086218916 -0.054150626
-0.023321804 0.044060435 0.10387746 -0.066737935 -0.02935736 0.024847517 0.14320858 -0.120124854
0.10058518 0.035137735 -0.019833269 -0.11675684 -0.11215941 -0.07716401 0.083439514 0.060664717
0.07587843 -0.11266645 0.044466782 -0.0032467775 -0.052099966 0.049323272 0.009202874 0.023790125
-0.14338456 0.03886126 0.059707504 -0.0719074 -0.06948834 0.0974722 -0.118782654 -0.11833479
0.08493462 -0.1335882 -0.08543656 -0.08415912 0.06687885 -0.04751318 -0.08866094 0.03157365
0.031608418 0.027930016 -0.11365443 -0.115643464 -0.010980587 -0.055866078 -0.0120919915 0.07504063
-0.04713956 0.107350565 -0.009253579 0.029443838 -0.113173164 -0.123976626 -0.105073534 0.08000116
-0.0550476 0.026599592 0.012133826 -0.044910863 -0.12898299 -0.07096271 0.043797813 -0.022527454
-0.103672184 0.0016680121 0.09881591 -0.0068691745 -0.031585276 -0.071995854 0.043232407 0.05972613
-0.004610232 0.03604165 0.016047858 -0.021320611 0.07644977 0.08570537 -0.024329355 -0.011468301
-0.020336233 0.10000255 -0.10604004 0.07060201 0.078082114 -0.069324456 0.06681487 -0.058806017
-0.1186436 0.006254262 -0.06306789 -0.10964543 -0.027354628 0.022182481 -0.10861745 0.0024069073
-0.031879436 -0.05628547 -0.0829765 0.13088664 0.038530968 -0.09025029 -0.064458296 0.066536866
0.076358564 0.077991776 -0.014607116 -0.11635913 0.013892865 0.029672332 -0.0095111905 0.024641054
0.056106806 0.120536014 -0.10093244 0.08437318 0.0603582 -0.03941217 -0.12341297 -0.08465132

network.0.bias f4 [128]
00000000: fdd2 a03a 53de 60bd 2ee4 473d 90c5 8d3d
00000010: 6c0f d4bd 9dcb f23d 741e 2d3d 4770 6e3d
00000020: 722a c83d a1ef 653d 73ed 163d 64f7 813d
00000030: e3af e9bd 09d4 ad3d 6282 96bd 2da4 bc3c
00000040: bb55 dd3d 8c77 833c 1a41 f23d 0ba1 da3d
00000050: 96d5 9bbd e449 f43d 48a6 c6bd 074e 84bc
00000060: e8dc 003e e69d 8dbd 3594 c7bd 3551 283d
00000070: 39d4 8fbb 6df3 823c 5302 de3d bc70 6a3d
00000080: 3db7 723d b474 d8bd 2d8a febd 58b6 b83d
00000090: a8a5 783d 2362 ea3c 5154 fabd 603c bf3d
000000a0: 7b23 8abb f814 8cbd 9e98 c03d 372e 5ebc
000000b0: bd04 e6bd d40a c13d 482a 46bd 0a09 99bc
000000c0: 252a d1bd e64e c0bd bbed be3c 1e5f c1bc
000000d0: a7d3 1b3d c205 d63d 27a1 7cbd b87c db3d
000000e0: 393e 833d 6c08 cfbc 3786 ca3d 77c2 3fbd
000000f0: c3ae c8bc cb1d 0c3d 3dbf 99bd d56d a53d
00000100: 2ce0 fa3d e2ba c2bd 2c71 efbd 3d51 d43d
00000110: e5da f13d e4b7 31bd 196a b5bc ef57 52bd
00000120: 1a19 f1bd 7b12 f43d 0b68 a7bd 7697 7fbd
00000130: 3383 51bc 6eb4 bb3d 5a4a cbbc 95a7 a13d
00000140: a6b7 8bbd cfd1 5f3d bd1d 0cbc 6142 65bd
00000150: e763 d6bd 13d0 c7bd 1efc f93d 35b0 e2bb
00000160: 84eb dc3d fb92 de3d 8049 cdbd cd6b f2ba
00000170: 37bc c73d d699 b7bd c572 db3d 36d9 d33d
00000180: 7af2 eebd 55f8 34bd 2bd2 acbc f919 96bd
00000190: f683 493d d6f8 5a3d 42ba 99bd 6278 b2bd
000001a0: 8870 d6bd 9510 a2b9 db50 8ebd bf17 84bd
000001b0: cff6 a43c e362 2ebd d6d1 bebd b931 e63c
000001c0: 465e 9d3d 0809 87bd 8c98 babd 6fa2 dc3b
000001d0: 4db6 c5bd ef6f 7b3d 7eee 66bd 7c8b adbd
000001e0: 2c1c a3bd aaa3 9ebd ba31 d0bd 93d1 cfbd
000001f0: 6957 193c 7fa1 13bd a33f 84bd d54a b0bd
0.0012269911 -0.054899525 0.048801593 0.06922448 -0.10354504 0.118552424 0.04226537 0.058212545
0.09773721 0.05613673 0.036847543 0.06346014 -0.11410501 0.08487708 -0.07349087 0.023027504
0.108073674 0.016048215 0.118288234 0.10675248 -0.07609098 0.11928156 -0.096996844 -0.016150488
0.12584269 -0.06914882 -0.09745065 0.04109307 -0.0043893126 0.015985215 0.10840287 0.057236418
0.05925678 -0.10569134 -0.12428699 0.09019154 0.060704857 0.028611248 -0.12223113 0.093376875
-0.0042156554 -0.06839937 0.094041094 -0.013560823 -0.112313725 0.094258934 -0.048380166 -0.018681068
-0.102131166 -0.09390049 0.023306718 -0.023604926 0.038043644 0.10450317 -0.061677124 0.107171476
0.064083524 -0.02527257 0.09888881 -0.046816316 -0.024497395 0.0342081 -0.07507179 0.080775894
0.12249789 -0.09508301 -0.11691508 0.103670575 0.11809329 -0.043388262 -0.022145318 -0.05135339
-0.11772366 0.11917587 -0.081741415 -0.062400304 -0.012787628 0.091652736 -0.024815727 0.07893292
-0.068221375 0.05464345 -0.008552012 -0.055971507 -0.104682736 -0.09756484 0.12206291 -0.006917978
0.107871085 0.10867878 -0.10023785 -0.0018495262 0.09752696 -0.08964889 0.1071525 0.10344164
-0.116673425 -0.04418214 -0.02109631 -0.07329173 0.049198113 0.053459965 -0.07506229 -0.087143674
-0.104706824 -0.00030911402 -0.06949016 -0.06449842 0.020137219 -0.042574774 -0.09317367 0.028099881
0.07683997 -0.065935194 -0.09111127 0.006733231 -0.09653912 0.061386045 -0.056379788 -0.0847387
-0.07964358 -0.0774606 -0.101657346 -0.10147395 0.009359219 -0.036042687 -0.0645745 -0.08608023

network.1.weight f4 [128]
00000000: 1fdf 813f d809 843f 4c3a 843f 2124 823f
00000010: bbbd 7a3f 7315 7f3f 0895 7c3f 5895 813f
00000020: 3709 823f d5da 813f 4d34 7a3f 878a 7c3f
00000030: 9809 803f c262 803f 40b3 7e3f d952 813f
00000040: d339 7a3f 5cd3 813f dfd1 7b3f 468b 823f
00000050: 9d5e 7d3f 8f12 7d3f 6ff6 773f c616 7d3f
00000060: 90a1 813f 540b 843f b745 7f3f 7491 833f
00000070: 0602 783f e3ea 813f bb96 7b3f 88a0 7c3f
00000080: 232f 763f 85e7 7f3f fab7 773f 1555 773f
00000090: 69c8 793f 85b6 773f 11aa 7d3f b400 833f
000000a0: d3d7 803f 9790 7b3f 49e5 813f be62 7e3f
000000b0: 6959 823f ed77 753f f33b 803f 9d64 813f
000000c0: ee91 813f 7ebc 803f cb53 803f c722 7d3f
000000d0: f999 823f 7647 7b3f d3ae 7f3f 8268 803f
000000e0: 1902 813f 24d7 823f 2978 7e3f 7891 813f
000000f0: 9ae3 7b3f c504 813f cacd 7c3f 10d8 7c3f
00000100: d929 823f 77f6 7d3f 6037 823f ef2e 823f
00000110: 401b 793f da4c 813f 09be 7b3f 1bce 7e3f
00000120: af5b 853f 51ae 7e3f e0cc 7b3f 4ae4 813f
00000130: a611 813f fcfa 803f efd4 813f 4626 783f
00000140: 2520 7a3f 195d 813f dc0e 7f3f f8e5 7a3f
00000150: d2cd 7b3f 63e9 7d3f 6977 7a3f 473e 813f
00000160: fd15 7a3f 4c58 7e3f 353d 803f 5aaa 833f
00000170: 457c 7d3f c77a 803f ea80 813f ff2f 833f
00000180: d159 7f3f 5d4a 7e3f 22d1 803f 26fb 7e3f
00000190: 27b7 783f 34fa 7e3f 9cb8 7a3f 5547 803f
000001a0: 7b54 7a3f cf70 7d3f 0ac2 823f 2de0 7d3f
000001b0: b3a6 813f f079 7e3f 75cd 813f 4d01 7f3f
000001c0: 62fd 803f 1279 7f3f 1014 813f 7fd2 823f
000001d0: c7c9 7e3f 39b3 843f 036e 833f f02f 803f
000001e0: 8bf4 783f a37f 7c3f 3876 813f e3fd 833f
000001f0: b48f 7d3f 716c 823f 7345 7b3f e031 7c3f
1.0146216 1.0315504 1.0330291 1.0167276 0.97945756 0.99642104 0.98664904 1.0123701
1.0159062 1.0144907 0.97736055 0.98648876 1.0002928 1.0030138 0.99492264 1.0103408
0.9774448 1.0142627 0.9836711 1.0198753 0.98972493 0.98856443 0.968604 0.98862875
1.012743 1.0315957 0.9971575 1.0278764 0.9687809 1.0149807 0.9827687 0.9868245
0.96165675 0.99962646 0.967651 0.966142 0.97571427 0.9676288 0.99087626 1.023459
1.0065864 0.982675 1.0148097 0.9936942 1.0183536 0.9588612 1.0018295 1.010883
1.0122659 1.0057523 1.0025572 0.9888119 1.0203239 0.98155916 0.99876136 1.0031893
1.0078765 1.0221906 0.994021 1.0122519 0.9839417 1.007958 0.9875151 0.98767185
1.0169021 0.992042 1.0173149 1.0170573 0.97307205 1.0101578 0.98336846 0.9953324
1.0418605 0.99484736 0.9835949 1.0147793 1.0083511 1.0076594 1.0143107 0.969334
0.977053 1.0106536 0.9963205 0.98007154 0.9836093 0.99184245 0.97838455 1.009713
0.976898 0.9935348 1.0018679 1.0286362 0.99017745 1.0037469 1.0117466 1.0249022
0.99746424 0.9933222 1.0063822 0.9960197 0.9715447 0.9960053 0.9793794 1.0021769
0.97785157 0.9900026 1.0215466 0.9917019 1.0128998 0.9940481 1.0140826 0.9961136
1.0077326 0.99794114 1.0084248 1.0220488 0.9952664 1.0367194 1.0267948 1.0014629
0.9724814 0.9863226 1.0114202 1.0311855 0.990474 1.0189344 0.98152846 0.98513603

network.1.bias f4 [128]
00000000: 1f51 0e3d df88 893c 5d6f 80bb 6c41 bb3c
00000010: 559a ecbb 53d5 133b c5a2 83bc 1e07 593c
00000020: 9e14 0cbc f667 bc3c a194 4bbc 5850 41bd
00000030: 6719 15bd 20a4 78bc e590 14bc 5121 813c
00000040: 5228 333c 09f9 c13c 3b03 35bd 0210 4bbb
00000050: c875 4abd aa6e 493c e6d5 2abd ef24 f43b
00000060: 61fb ac3c b319 fdbb f319 103a 9cc1 a83b
00000070: 63f1 4f3c dbe5 073d 8c9e b5bc 1f9c c6bb
00000080: 15d1 51bd e071 58bd cd2f b2bc eb93 a9bc
00000090: 3fed d5bc cb40 89bc 3d3c 2cbc e683 98bc
000000a0: 0d92 85bc ebc0 59bd 8c14 a0bc f7ec be3b
000000b0: 3e97 063c d732 11bd ae02 cabc 1117 e13b
000000c0: 4bcd cbbc b29c c8bc 8f4b 87bb 41b6 e3bc
000000d0: 7ba9 abbc 3058 0b3d 0c37 21bd 2fa6 1ebd
000000e0: 179f a5bc 8339 603b b55a 79bb e80a ecbc
000000f0: ed5f e9bc e040 cabc caf7 38bd 6b70 11bd
00000100: 8906 c9bc 99f6 10bc 70aa f8ba 2d7b bfbc
00000110: a33e 8abb 9dd2 00bc 6e05 283d a2b6 2f3d
00000120: 2d47 043d 7ee9 00bc 533a f33c f810 a5bc
00000130: 8ee1 9abc 13ae 03bd af08 53bc 415a 22bd
00000140: 5ffb 4b3b d534 093c 6343 cdbc 57d6 16bd
00000150: 878a 4dbc 21ef ddbc f11d 61bc 6319 373c
00000160: 5247 15bd d63a df3a 8219 3bbb bdfc 7c3c
00000170: 1d5f 0abd c566 b7bb 76d6 e23b 669c 933b
00000180: f7e5 e3bc c2f5 a03a 5c61 5ebd 39d6 543c
00000190: ae19 b9bc 574a f43c 3a73 60bc eb0d 82bc
000001a0: 3830 ee3b 000b ca3b 688d e53c 058c 46bd
000001b0: 944e 10bc 451d 7bbc 187d 1bbb 9426 edbc
000001c0: 5dcb cd3c c9aa dfbb bf9c 033b b82d 06bd
000001d0: 676d 34bd bc62 75bc e288 9bbc 171d 6bbc
000001e0: d7e0 a1bc 225d c0bc 2394 32bd d7f3 08bc
000001f0: 8451 c6bc a8a9 95bc 0c39 a3bc 5d98 20bd
0.03474533 0.016788898 -0.0039195255 0.022858344 -0.0072205462 0.002255757 -0.016068825 0.013246326
-0.008549837 0.022998791 -0.012425573 -0.047195762 -0.03640118 -0.015175849 -0.009067749 0.015762957
0.010934906 0.02367832 -0.044192534 -0.0030984883 -0.04942873 0.012294451 -0.041707896 0.007450692
0.02111596 -0.007724011 0.0005497031 0.005150033 0.012691828 0.03317819 -0.022170328 -0.0060610916
-0.051224787 -0.052842975 -0.021751309 -0.020700416 -0.026114104 -0.016754529 -0.010512409 -0.018617582
-0.016304994 -0.053162497 -0.019541048 0.0058265883 0.00821477 -0.035448875 -0.02465948 0.006869205
-0.024878165 -0.02448878 -0.0041288803 -0.027796866 -0.020954838 0.03401965 -0.039359137 -0.038732704
-0.020217462 0.0034213967 -0.003804845 -0.028813794 -0.028488124 -0.024689138 -0.045158185 -0.0355076
-0.024539249 -0.008847856 -0.0018971693 -0.023374164 -0.0042188927 -0.007862714 0.041020803 0.04289878
0.03229444 -0.007868169 0.029690897 -0.020149693 -0.018906381 -0.032148432 -0.012880488 -0.039636854
0.003112517 0.008374413 -0.025056547 -0.036825504 -0.0125452345 -0.027091565 -0.013740049 0.011175486
-0.03644497 0.0017031084 -0.002854914 0.015441117 -0.033782113 -0.005596968 0.0069225384 0.004504728
-0.027819617 0.0012280273 -0.054292068 0.012990528 -0.022595253 0.029820604 -0.013699347 -0.015875777
0.0072689317 0.006165862 0.02802153 -0.048473377 -0.008807797 -0.015326803 -0.0023725685 -0.02894906
0.025121385 -0.006825779 0.0020082442 -0.032758445 -0.044049647 -0.014977153 -0.01898617 -0.014350197
-0.019760532 -0.02348191 -0.043598305 -0.008358917 -0.024208792 -0.018269375 -0.019924663 -0.039207805

network.1.running_mean f4 [128]
00000000: cb3f a23a c0b5 60bd 9ace 473d 2fb1 8d3d
00000010: 6900 d4bd 12c1 f23d 161a 2d3d f043 6e3d
00000020: 4821 c83d 8fe6 653d 5ce9 163d 52f3 813d
00000030: 2b9d e9bd dec8 ad3d 147a 96bd a34b bc3c
00000040: 5a4f dd3d 8069 833c ca32 f23d a19a da3d
00000050: 2fce 9bbd 4d3c f43d 369c c6bd b14a 84bc
00000060: 00d9 003e e58d 8dbd 878a c7bd de45 283d
00000070: a6b8 8fbb 6c00 833c fef8 dd3d 995d 6a3d
00000080: 82aa 723d 346a d8bd cd7d febd 8fac b83d
00000090: af99 783d cf63 ea3c 9b4e fabd 6730 bf3d
000000a0: 3ae0 89bb 4913 8cbd 4895 c03d 65fc 5dbc
000000b0: ad10 e6bd d902 c13d 7410 46bd c8e5 98bc
000000c0: bf1d d1bd 6d46 c0bd abf1 be3c f836 c1bc
000000d0: 73d6 1b3d 29f7 d53d 0290 7cbd 7d6e db3d
000000e0: ed2d 833d fdf7 cebc 9876 ca3d faab 3fbd
000000f0: 50cf c8bc 6855 0c3d fcb5 99bd 5b67 a53d
00000100: c7c9 fa3d 0ea4 c2bd cc63 efbd 2743 d43d
00000110: 5cce f13d 7bb9 31bd ec53 b5bc e46d 52bd
00000120: 840b f1bd f2ff f33d 9c5c a7bd ad8b 7fbd
00000130: fb99 51bc dfad bb3d f44e cbbc c0a1 a13d
00000140: 9fae 8bbd 66b9 5f3d b50e 0cbc 092b 65bd
00000150: 775c d6bd 0dbd c7bd ebef f93d b986 e2bb
00000160: fcda dc3d 8088 de3d 793b cdbd 6e31 f5ba
00000170: 6ab1 c73d 7e96 b7bd cc62 db3d 59c7 d33d
00000180: 6ae5 eebd 2e06 35bd 80cf acbc 1c12 96bd
00000190: 3775 493d 98f1 5a3d d6b3 99bd 6b6e b2bd
000001a0: be65 d6bd 44cb acb9 f14c 8ebd 770d 84bd
000001b0: 42cc a43c 4c52 2ebd 1ecd bebd 191f e63c
000001c0: c556 9d3d 2801 87bd 028e babd 8177 dc3b
000001d0: 2aa7 c5bd 9f52 7b3d 1be3 66bd 9683 adbd
000001e0: 6f14 a3bd 5498 9ebd 5015 d0bd 62bd cfbd
000001f0: 8af1 183c 419e 13bd 383d 84bd ae3c b0bd
0.0012378631 -0.05486083 0.048781015 0.06918561 -0.10351641 0.118532315 0.042261206 0.05817026
0.09771973 0.05612808 0.036843643 0.06345238 -0.114069305 0.08485578 -0.07347503 0.022985285
0.10806151 0.016041517 0.118260935 0.106740244 -0.07607686 0.11925564 -0.096977636 -0.016148897
0.12582779 -0.0691183 -0.09743219 0.041082256 -0.0043860255 0.015991412 0.10838507 0.057218168
0.05924464 -0.10567132 -0.12426338 0.09017288 0.06069344 0.028612046 -0.12222024 0.09335404
-0.004207638 -0.06839616 0.09403473 -0.013548945 -0.112336494 0.09424371 -0.048355535 -0.018664256
-0.10210752 -0.09388433 0.023308596 -0.023585781 0.03804631 0.10447533 -0.061660774 0.10714433
0.06405244 -0.025264734 0.09885901 -0.04679487 -0.024512917 0.034261137 -0.07505414 0.08076354
0.12245517 -0.09503947 -0.116889566 0.10364371 0.11806938 -0.04338978 -0.022134744 -0.05137433
-0.117697746 0.11914052 -0.08171961 -0.062389065 -0.012793059 0.09164023 -0.024817921 0.078921795
-0.06820416 0.05462017 -0.008548428 -0.055949245 -0.10466855 -0.097528554 0.12203964 -0.006913033
0.107839555 0.10865879 -0.10021109 -0.0018706748 0.09750636 -0.08964251 0.107122034 0.10340757
-0.11664851 -0.044195347 -0.021095037 -0.07327673 0.04918405 0.053453058 -0.07505004 -0.08712467
-0.104686245 -0.0003295784 -0.06948269 -0.06447881 0.020116929 -0.042558953 -0.09316467 0.028091
0.076825656 -0.065920174 -0.09109117 0.006728113 -0.09651025 0.06135809 -0.05636893 -0.08472364
-0.07962882 -0.07743898 -0.10160315 -0.10143544 0.009334931 -0.036039595 -0.06456989 -0.08605324

network.1.running_var f4 [128]
00000000: 7a09 af3e 8b66 3d3e 2c23 7f3e 49f3 b53e
00000010: f2ea 833e b526 c43e 556e 143f d791 243e
00000020: 7832 fa3d 10ed 463e 96eb ee3e 30fb 413e
00000030: f9c8 903e 49d1 083f ab87 973e 16bf aa3e
00000040: 2bcf 313e 1a84 953e f26c d83e cd30 863e
00000050: 59a7 c33e 7513 2e3f 4a84 033f fc64 963e
00000060: 89c8 d33e beb6 853e 2705 703e 112d 473e
00000070: f41c c13e 9672 b43e cb4d 693e 60db bc3e
00000080: 61c9 e43e da0b c53e eec5 013f 1be7 223e
00000090: 9076 333f 35ca dc3e ac17 0f3f 1215 6b3e
000000a0: 23ce 913e 7cc7 653e 598a b13e 3f2b e13e
000000b0: a31d ad3e 4b19 043f f782 373e 66ad 8d3e
000000c0: 0f34 b83e f7ad 3d3e 51e4 3d3e acaf 643e
000000d0: ca39 953e c1ad 8a3e 669f 873e 4028 b03e
000000e0: 11c4 843e 10ea 753f 3f7f 9d3e 5871 8e3e
000000f0: 4ada 453e 5658 603e 3924 af3e 795b 353f
00000100: 0edd a03e daa2 3a3e d9f1 333f 033e ba3e
00000110: fddd fe3e 9495 a43e dac0 933e 744a 623e
00000120: 4bcb 4f3e bcc1 b33e 5764 013f 458a ae3e
00000130: cd22 883e b7bb bb3e f3f9 9b3e 00fd 843e
00000140: 05bf 7e3e b1f6 273e cf94 9d3e 664d 843e
00000150: 8623 963e 5c68 bd3e 914a c63e aaa5 e13e
00000160: cfb9 ae3e decf 233e e73f 9a3e 4fa6 3c3e
00000170: 5fa9 e63e 4275 8d3e 1e9f 633e b97c b13e
00000180: 1b8b 913e 8274 4b3e 3b63 033e fcef 8f3e
00000190: 3b3e d03e fd80 023f 3fcd c23e fe67 ff3f
000001a0: e38c a33e c232 063e 1b75 c93e 8b9e 953e
000001b0: 93e1 3c3e 6e29 3d3e f0c5 9e3e f364 3c3e
000001c0: 32b5 c83e 9948 963e f2eb 8f3e 72b8 8e3e
000001d0: 6f17 fb3e 9875 1e3f d5eb 803e 05f8 5e3e
000001e0: f6f5 043f cc07 e03e 47cc 523e daf0 483e
000001f0: 087e a33e 1944 b63e 48bf 083f 785a 9e3e
0.34186918 0.18496148 0.24915761 0.35537174 0.25765187 0.3831078 0.57980853 0.16071258
0.122166574 0.1942637 0.46664113 0.18943477 0.2827833 0.53444344 0.29595694 0.33348912
0.17364185 0.29202348 0.4227062 0.26209107 0.38213614 0.6799844 0.5137373 0.2937392
0.41363934 0.26115984 0.23439465 0.19450785 0.37717402 0.35243672 0.22783582 0.3688612
0.4468489 0.38485605 0.5069264 0.15908472 0.70102787 0.43123022 0.55895495 0.22957256
0.28477582 0.22439378 0.34675863 0.43978307 0.33811674 0.51601094 0.17921053 0.27671355
0.35977218 0.18523394 0.18544127 0.22332639 0.29145652 0.2708569 0.264888 0.34405708
0.25930837 0.96060276 0.30761144 0.2782085 0.19321552 0.21908697 0.34207323 0.708427
0.3141865 0.18226185 0.70290905 0.36375436 0.4977874 0.3214537 0.28858072 0.22098714
0.20292394 0.35108745 0.5054373 0.34089866 0.2658905 0.36666653 0.30464134 0.25974274
0.24877556 0.16402699 0.30777594 0.258403 0.29323977 0.36993682 0.38728765 0.44071704
0.34126136 0.15997264 0.3012688 0.18422817 0.45051095 0.27628523 0.22228667 0.34665468
0.28426442 0.19868663 0.12830822 0.2811278 0.40672478 0.5097807 0.38047215 1.9953611
0.31943426 0.131053 0.39347157 0.2922252 0.18445425 0.18472835 0.3101039 0.18397884
0.3920074 0.29352263 0.281097 0.27875096 0.49041316 0.61898184 0.25179926 0.217743
0.51937807 0.4375595 0.20585738 0.19623128 0.31932092 0.3559883 0.5341687 0.30928397

network.3.weight f4 [64, 128]
00000000: bbbf 783d 3da1 6d3c 66c8 8d3d ec6e 4ebd
00000010: 47be 573d f29e 313d 9475 69bc e38b b13c
00000020: ddc9 c33d 09f3 43bd 9dd1 37bd ec45 efbc
00000030: 4010 a9bc 60b9 b83c 4123 073d ae87 4d3c
00000040: 63f3 363d 794e 83bd 20c0 503d 3931 163d
00000050: 5274 603d b615 91bd 6a56 e5bb 63a3 443d
00000060: 9402 213c 9fea b73d f25d 293d fda0 49bd
00000070: ffaf 0a3d 5fe5 abbc 7cd3 1a3c e6f5 10bd
00000080: 5671 a53d 2f02 3fbd 8137 b03c feff 9d3d
00000090: b9dd 2a3c 7924 9f3d a7d1 003d 0f73 5abd
000000a0: c3de 773d 94aa 76bd c46b 42bd 3948 e8bc
000000b0: c98b a3bd fcd5 2e3a afc9 673d 4aed 803d
000000c0: c9ff b63c 3283 a23c 26ea 7f3c abe8 ae3d
000000d0: b0d8 b6bd f05b b93c 5ff3 8a3d 262c 8abd
000000e0: 29a8 2339 fb27 473d 64c6 eebc 89d4 773d
000000f0: f01f 6ebd fdef a53d 1b03 cd3c 72c1 fc3c
00000100: 0859 13bd d949 a4bd 7d0d 3bbc 448c 143d
00000110: 7a39 083d 84bf 58bd e09f 693d ad58 d7bd
00000120: 47f5 6d3d 8f11 f53c 3ca8 37bc ae4f a93d
00000130: 117d 98bd 24eb 183d b30c a93d c9c9 f7bc
00000140: 2b5e 6abd 3cf4 fe3c edfe 40bd cc26 9c3d
00000150: b316 b0bc 1e98 3a3c 1e4e 623d bf06 c0bd
00000160: 04cb a93d 9fd8 d2bc 1d6f 0e3d bb3d 24bd
00000170: cfef bebc e624 523d c357 44bd da21 9abd
00000180: 7181 c13d 18c8 073c 27e8 83bd 8ce4 1abd
00000190: 8faf c03d 85e0 2a3d 8051 93bd 4972 2c3d
000001a0: d933 a4bd f789 39bd 7725 853c 10a2 65bd
000001b0: 81b4 1fbd 29d3 943b 3291 b0bd 27d9 2dbb
000001c0: d726 0bbd d941 ddbc 1943 49bb 6e6e 11bd
000001d0: 6e8b 9c3d c271 38b9 e9ce a4bc d524 923d
000001e0: 46ad 833d 4f8e 38bd d058 60b8 19e3 5fbd
000001f0: 7665 a8bc 3da7 853d 8fd9 9f3d aa49 373c
00000200: 1bc1 5b3d d057 953c 00b6 e6bc db20 993c
00000210: 9d48 fe3c da0a 9fbc 8dea 6cbc 83fa f63d
00000220: 6ade 233d 3a8e 22bd d66e 2d3d cf14 20bd
00000230: 12e9 b63c fc6c 5f3d a9f5 c5bc d2a6 dabc
00000240: 8cad 2ebb 9d5b 653c f38f 55bd 6721 603d
00000250: a415 3abd 3f52 ecbc e25b 7dbc 9153 2a3d
00000260: a7b8 0fbd 5205 dbbc cdd2 ea3d 0980 50bd
00000270: 5cfd 8bbd ea1e 5a3d b624 7bbd 6c54 63bc
00000280: 066c 533d 6be6 00bc 1040 853d 49c8 303d
00000290: dd4b a03d c27c 22bd e08b 01bd 916e c93d
000002a0: 3ae1 a73b 904c f83c 5829 a23d 34da 7abd
000002b0: 0143 6ebb 4937 7cbd 32a4 35bd a299 a6bc
000002c0: 4d1e 90bc 4e8f e13d 82e3 9e3d 16d1 07be
000002d0: da4e f73c 771d bcbc 65a7 6dbc 5618 8ebc
000002e0: 93be 023d a546 893d ccda f03c 827f 98bd
000002f0: d2b9 e63c 15dc 733c 18f7 7e3d f56d f4bc
00000300: 8eba ab3d d87b d6bd 2909 93bd 484c 0a3c
00000310: 7007 d0bc 5a88 133a 2038 c3bc 8cd3 1ebd
00000320: 4973 8a3d 376a 593b 596c 113c 0db9 5e3d
00000330: da61 c03a 29ef d83d 64a3 9539 6330 26bc
00000340: b7ab 48bd 157e 76bc 9cc6 a23c 1916 ce3c
00000350: 2541 2b3c 9be4 96bc ba9b 923b a528 723d
00000360: 7d0e c73b 5455 89bd 13c1 9d3d b3b6 593d
00000370: f166 fcbb 6664 313d e0dc a93d c8df 153d
00000380: 3db0 543c c856 bcbc 9581 513d f41b cdbd
00000390: 5be1 95bc 2bdf 26bd e0c9 b73d e0f1 a03c
000003a0: 3178 873d 2816 eabb 920c b43b d752 86bd
000003b0: d14c e7bc 21e3 26bc 3508 913d dea6 0bbc
000003c0: d919 0a3d 3fae 36bd 0200 a6bd 9746 813d
000003d0: 53ae 4ebc fa6e 8cbb 17fe aabc cf0e 91bc
000003e0: f96d 44bd 0ac2 363d 61d5 91bd 1240 d53c
000003f0: 2105 c43d 03c2 8dbd 3ed0 6c3d 53d0 37bd
0.060729723 0.014503774 0.069229886 -0.050398752 0.052671697 0.043364473 -0.014249224 0.021673148
0.09559987 -0.0478392 -0.044877637 -0.029208146 -0.020637631 0.022549331 0.032992605 0.012544556
0.044665705 -0.06411452 0.050964475 0.036668036 0.05479843 -0.07084219 -0.0069988267 0.04800738
0.009827275 0.08980297 0.04134936 -0.049225796 0.03385925 -0.020983396 0.009449836 -0.035390757
0.08078258 -0.04663294 0.021510841 0.07714842 0.010428839 0.077706285 0.03144994 -0.053332385
0.060515177 -0.06022127 -0.047466055 -0.028354751 -0.07985646 0.00066694594 0.056588825 0.06295259
0.022338765 0.01983795 0.01561979 0.08540472 -0.089280486 0.022626847 0.067847006 -0.06746702
0.00015607536 0.048622113 -0.029147334 0.060505424 -0.058135927 0.08102415 0.025025895 0.03085396
-0.03597358 -0.08021898 -0.01141679 0.03626658 0.03325794 -0.05291702 0.057037234 -0.105149604
0.058095243 0.0299156 -0.011209544 0.08267151 -0.074457295 0.037333623 0.08254375 -0.030247586
-0.05721871 0.03112232 -0.047118116 0.076245874 -0.021495199 0.011388807 0.05525028 -0.09376287
0.08290675 -0.025738059 0.034773935 -0.040097933 -0.023307709 0.05130472 -0.04793526 -0.07525988
0.09448517 0.008287452 -0.06440764 -0.037815616 0.09408485 0.041718025 -0.07193279 0.04210118
-0.08017702 -0.04529759 0.016253216 -0.056062758 -0.0389905 0.004541774 -0.08621444 -0.0026527138
-0.033972587 -0.027008938 -0.003071016 -0.035505705 0.076437816 -0.00017589986 -0.020118194 0.071359314
0.06429534 -0.04505759 -5.3488475e-05 -0.054659937 -0.020556193 0.06526039 0.07805168 0.0111869965
0.053650957 0.018230349 -0.028162956 0.018692425 0.031040484 -0.019414354 -0.014460218 0.120595
0.040007032 -0.03968642 0.04234203 -0.039082345 0.022327933 0.054547295 -0.024164991 -0.026690874
-0.0026653735 0.013998893 -0.052139234 0.054719355 -0.045430794 -0.028847812 -0.015463801 0.0415836
-0.035088208 -0.026735935 0.11465988 -0.050903354 -0.06835434 0.05325214 -0.061314307 -0.013875108
0.05161669 -0.007867436 0.065063596 0.043159757 0.0782697 -0.03966976 -0.031627536 0.09835542
0.0051232846 0.030309945 0.07918042 -0.06124325 -0.0036355855 -0.06157616 -0.044346042 -0.02033693
-0.017592574 0.11013661 0.077582374 -0.13263354 0.030188967 -0.022963269 -0.014505242 -0.017345589
0.031920027 0.067029275 0.029401205 -0.07446195 0.028164778 0.014884015 0.062247366 -0.029837588
0.08385192 -0.1047284 -0.071794815 0.008441038 -0.025394171 0.0005627923 -0.023830473 -0.038775966
0.0676027 0.0033174881 0.00887593 0.054375697 0.00146776 0.10592491 0.0002854123 -0.010143372
-0.048991885 -0.015044709 0.019870095 0.025157021 0.010452543 -0.018419554 0.0044741305 0.059120793
0.006074725 -0.06705728 0.077028416 0.05315275 -0.0077027013 0.043308638 0.08294082 0.036590368
0.012981472 -0.0229906 0.05114897 -0.10015097 -0.018295934 -0.040740173 0.089740515 0.019646585
0.066147216 -0.0071437545 0.0054946626 -0.06558769 -0.028234871 -0.010185988 0.070816435 -0.008523671
0.033716056 -0.044599768 -0.0810547 0.06312292 -0.012614804 -0.0042856904 -0.020873113 -0.017707257
-0.04795644 0.044618644 -0.07120777 0.026031528 0.09571291 -0.069217704 0.057815783 -0.044876408

network.3.bias f4 [64]
00000000: 0f11 ac3d dc8f 803d e0b9 9d3d e3ab 4f3d
00000010: 0439 3c3c 205c 543d 7259 2bbd 9884 f63c
00000020: e0ff 323d cb25 87bd 6408 263c d0c3 c83c
00000030: 0eb8 f2bc 0dc6 893d d5c9 e83b d0b4 8fbb
00000040: 9f4f 80bd bb4a c6bc 1010 f03c a05b 163d
00000050: 38a4 b3bd bac9 cfbc 481d 67bc d4fd 9abd
00000060: 17c7 81bb e6d4 4e3d 5d1f d5bc d5c7 6dbd
00000070: be8f 643d 3066 a6bc 7eaf 9abc 2210 383c
00000080: 9682 40bd b1f7 c4bc 6f57 073d c642 fa3b
00000090: dbd8 9e3c 2749 b0bd 4ce7 67bd bcf2 213d
000000a0: 9211 80bd 2526 b8bc 004c e3bc b200 503a
000000b0: 0e27 683d 7133 0d3d 8500 03bd 6728 4fbd
000000c0: bb36 d63c 9968 fc3c 7456 873d ac07 95bd
000000d0: d1e5 30bd 673e b339 d13a cd3c da54 9fbd
000000e0: ab5e 2fbc 2f59 363d cb35 afbd e391 b23d
000000f0: 8d20 4ebd 86e7 59bc 561d 36bd a143 ec3c
0.08401691 0.06277439 0.077014685 0.050701033 0.011488203 0.05184567 -0.04183335 0.030092523
0.043701053 -0.06599005 0.010133836 0.024507433 -0.02962878 0.06727228 0.0071041384 -0.004385568
-0.062651865 -0.024205556 0.029304534 0.036708474 -0.087715566 -0.025364745 -0.014106102 -0.07567945
-0.003960501 0.050496005 -0.026015932 -0.058051903 0.055801146 -0.020312399 -0.01888251 0.011234315
-0.046999536 -0.02404389 0.033042368 0.0076373545 0.019390514 -0.08607703 -0.056617066 0.03953813
-0.06253351 -0.022479126 -0.0277462 0.0007934674 0.05667787 0.034472886 -0.031982917 -0.05057564
0.026149144 0.030811595 0.066082865 -0.07276854 -0.04318792 0.00034188034 0.02505246 -0.07779856
-0.010703723 0.044518646 -0.08555182 0.08719232 -0.05032401 -0.013299828 -0.04446157 0.028840842

network.4.weight f4 [64]
00000000: c84d 833f a018 853f f896 823f 2831 803f
00000010: b029 863f 65c5 833f dd3b 803f b59e 803f
00000020: 551f 843f 34d0 803f 8af7 813f d397 853f
00000030: d77b 863f 9e90 853f 617d 843f 1bcd 833f
00000040: 88ee 863f 1712 813f 7ddb 843f 15b3 813f
00000050: 07a0 813f 6c26 833f dcdb 823f 1481 853f
00000060: 06a5 833f 63af 843f 37fc 853f 406a 7f3f
00000070: cb01 803f cdc5 853f 2cee 823f 0976 813f
00000080: 2e5c 863f 38ce 873f 4694 833f a543 843f
00000090: 3836 843f 4457 853f ea07 863f d281 7a3f
000000a0: b280 853f 2b76 823f a042 853f 5e33 863f
000000b0: 462b 823f 29be 853f 2f66 7d3f 22ac 813f
000000c0: dc45 813f 27aa 823f 36e5 833f 373e 853f
000000d0: 56cb 823f b103 823f 4726 823f 1804 833f
000000e0: 61af 853f c057 873f efca 823f 1e98 843f
000000f0: 317c 853f acc4 843f 3473 833f 8b3f 853f
1.0258112 1.039814 1.0202322 1.0015001 1.0481472 1.0294615 1.0018269 1.0048434
1.0322062 1.0063539 1.0153668 1.0436958 1.0506543 1.0434759 1.0350763 1.0296968
1.0541544 1.0083646 1.0379483 1.0132776 1.0126961 1.02461 1.0223346 1.0430017
1.0284736 1.0366024 1.0467595 0.997715 1.0000547 1.0450989 1.0228934 1.0114146
1.0496881 1.0609808 1.0279624 1.0333143 1.0329046 1.0417256 1.0471165 0.9785434
1.04299 1.0192312 1.0410957 1.0484426 1.0169456 1.0448657 0.98984045 1.0130656
1.0099444 1.0208176 1.0304325 1.0409611 1.0218303 1.0157377 1.0167931 1.0235624
1.0444146 1.0573654 1.021818 1.0358922 1.0428525 1.037252 1.0269532 1.0410017

network.4.bias f4 [64]
00000000: a7ba 673c f2c1 a23c 184e 3bbb 732b f2bb
00000010: 21aa 903b 6e62 c63c fa77 c4bb 0bfe b4ba
00000020: 78d0 17bc 089c d7bc 9e5f acbb 7a7d 893b
00000030: f4cf 45bc 979a 1d3a f2f8 0bbc cd37 5d3c
00000040: c733 2dbb 505c e5ba f161 0a3d 6775 2f3c
00000050: d856 39bc 7fcf 3e3c d00c 2b3c 7f7d e8ba
00000060: d113 80bc 4735 943c 93dd a9bc f0ba 81bc
00000070: d3d4 c8bc f25c 49bb e422 5dbc 8009 0d3c
00000080: c5c4 043d 91a1 91bc 40a8 b8bb 94bc 073d
00000090: af6a f33c 8cbf d1bb 3f79 603c bfce 57bd
000000a0: 019d 913b 2c0d dd3c 6112 4dbc 892f bdbc
000000b0: fefe e3bb 9346 333b 6238 0bbd bf98 9bba
000000c0: 43f9 c0bb b9aa 1ebc be1b 4c3c 5424 36bc
000000d0: ca13 f4bb 01d6 eaba 6796 973c 875d ce3c
000000e0: 262f 033d 6141 183d 27d4 a4bb 655d 80bb
000000f0: e5b2 903c 81af 63bc aa37 c23b 3b8c 0f3d
0.0141436225 0.019867871 -0.0028580483 -0.0073904335 0.004414812 0.024216857 -0.0059957476 -0.0013808621
-0.009266011 -0.026319519 -0.005260422 0.004195866 -0.012073506 0.00060121104 -0.00854324 0.0135020735
-0.0026428567 -0.0017498825 0.03378481 0.010709143 -0.011312209 0.011646151 0.010440066 -0.0017737596
-0.01563445 0.01809181 -0.020735538 -0.015836209 -0.024515545 -0.0030725566 -0.013497088 0.008608222
0.032414217 -0.017777236 -0.0056352913 0.033138826 0.029713957 -0.006401008 0.013700782 -0.052687403
0.004443765 0.02698382 -0.012516589 -0.023093956 -0.0069578877 0.0027355298 -0.033989318 -0.0011871083
-0.0058890893 -0.009684258 0.012457786 -0.01111706 -0.007448648 -0.0017916561 0.018504335 0.025191082
0.032027386 0.037171725 -0.0050301733 -0.0039173835 0.017663429 -0.013896824 0.005927046 0.035045844

network.4.running_mean f4 [64]
00000000: e4b6 a73e 0607 a13e 1965 f33d 3327 9d3d
00000010: 37c9 6bbc b190 133d 6b2a 5bbd 0da3 8fbe
00000020: 0b0e b53e d337 903e 1186 80be a68f cebd
00000030: a138 953e f370 593e 4a74 a7bd 02c9 2fbe
00000040: 0c09 a8be f7c7 d73e b726 983e 13cc 363e
00000050: 4cbb 2fbe 2e93 563a 4874 66bd f356 90be
00000060: f89b 8e3d 11e9 993e 85fa 443e dd8b 0d3e
00000070: 24b1 843e 8b3f a3be ee75 213e b56e 363e
00000080: 39d4 cb3d 457f 5fbd b8d3 d1bb 22fd bfbe
00000090: 1b95 47be 4fca bf3e 0bd9 7abd 8a3d 953e
000000a0: 71a0 93bd 8ec4 eb3d 47e5 8dbe 9dea 89be
000000b0: 5714 653e bff8 093e dce3 32be 8c50 36be
000000c0: 0cd0 c93d 247d 8d3d 7d8d 48be b20c 273c
000000d0: b3cc ac3e 77a0 773e 96bf a43e a7ba 86be
000000e0: 4551 173e 1e26 2a3e 2888 aa3d 601f c13e
000000f0: 5a2b ae3d 2b91 853e e1ca 033e 430d e9bd
0.32756722 0.3145067 0.11884517 0.07673492 -0.014391235 0.03602666 -0.05350725 -0.28054085
0.35362276 0.2816759 -0.25102285 -0.100859925 0.29144767 0.21234493 -0.08176477 -0.17166522
-0.32819402 0.4214475 0.29717037 0.17851286 -0.17161292 0.00081853836 -0.05626324 -0.28191337
0.069633424 0.30060628 0.1923619 0.13822885 0.25916398 -0.31884417 0.15767643 0.17815669
0.09952588 -0.054564733 -0.0064034127 -0.37497813 -0.19490473 0.37459037 -0.061242145 0.29148513
-0.07208336 0.11512099 -0.27713987 -0.26936808 0.2237104 0.13473795 -0.17469734 -0.17804164
0.09854135 0.06908634 -0.19585223 0.010195898 0.33749923 0.24182306 0.32177418 -0.2631428
0.14777096 0.16616103 0.08326751 0.3771925 0.085043624 0.26087317 0.12870361 -0.113794826

network.4.running_var f4 [64]
00000000: 7547 e73d 01ad d43d 4236 123e 1d31 2c3e
00000010: 6553 c43d fd16 b83d 9d6f 1c3e ec02 d03d
00000020: 5843 c93d 5ce6 b43d 09a4 af3d dd6e 093e
00000030: 40e1 963d 9edf c73d 8386 fd3d 2ed1 033e
00000040: ecd3 9f3d 665e e53d 1ea0 d53d 027f fa3d
00000050: 04eb f93d 0ab8 213e a1af 023e cd82 de3d
00000060: 9f59 c63d 9318 e53d 79d7 aa3d f0ff 573e
00000070: 1ab6 1a3e 5af7 043e 2a0a 083e dbfa 443e
00000080: 8499 043e e3e6 723d dee8 b93d 04aa 823e
00000090: dd17 333e d3dd 253e c475 ce3d 0c01 533e
000000a0: 79a6 fe3d 4ce1 1b3e e232 b43d 466d 813d
000000b0: 2985 1d3e 1b23 8a3d bf2c a53d c22a bb3d
000000c0: c3f5 f93d 8fa7 c03d f3c2 eb3d cd14 e13d
000000d0: 1c55 253e 2bf7 b73d e795 fb3d 28a8 173e
000000e0: 87b8 ef3d ea62 773d b070 053e 1dd6 d13d
000000f0: a837 d13d 8ed7 d53d 5ced ac3d a707 0d3e
0.11292926 0.103845604 0.1427851 0.1681561 0.09586219 0.0898876 0.15276952 0.10156807
0.09827298 0.08833 0.08576209 0.13421197 0.07367182 0.097594485 0.12379172 0.12872764
0.07804093 0.11199646 0.104309306 0.12231256 0.12203029 0.15792862 0.1276231 0.10864792
0.096850626 0.11186328 0.083418794 0.21093726 0.15108529 0.12984982 0.13285127 0.19236319
0.12949187 0.059302222 0.09077619 0.25520337 0.17489572 0.161979 0.10081056 0.20605868
0.12434096 0.15222663 0.087987676 0.063196704 0.15382828 0.06744977 0.08065175 0.09139015
0.122050785 0.09406959 0.11511793 0.109902956 0.16145748 0.089826904 0.12284451 0.1481024
0.11705118 0.060397066 0.13031268 0.10245917 0.10215694 0.104415044 0.0844371 0.1377245

network.6.weight f4 [64, 64]
00000000: f13f 1cbd 2e63 2e3e 4f94 aa3d ddd1 c13d
00000010: ef99 023d 1656 903d 93d4 c13d 4363 cfbb
00000020: 5d36 3cbd c61c d33c 5369 01be d8a6 063e
00000030: 3d11 27bd df38 1dbe 6a36 e6bb 7f7d 023e
00000040: 4da8 023d e752 053e 15fe de3d bc2e a8bd
00000050: 7d58 9a3d 3712 263d 8287 743c 646f 4c3a
00000060: aa91 ebbd 408b 93bd 11e4 01bc 2c44 af3b
00000070: fc57 f1bd 6717 823d 7824 853d feb9 4d3d
00000080: 1615 c93d 43b3 afbd 184f 06be ed05 7d3b
00000090: 6c06 613d 05a2 d63d b06a 08be ee47 11bd
000000a0: ddcd e3b9 9434 21bd 5168 a63c 8566 f5bc
000000b0: 4fb4 e93d f827 e8bd d5d0 54bd 8e44 39bd
000000c0: 80e5 453c 8933 99bd 3861 843d f158 1e39
000000d0: 8836 ccbd d29a 06bd 559f 5a3d ba84 c4bd
000000e0: fde5 213e 45e7 153e 9a32 7d3d 41c3 8dbd
000000f0: 74ea 11bd 2097 d6bd 7d56 253d 6ce5 10bd
00000100: 30ac 59bd f569 5ebd 3e13 2fbd 4b14 76bc
00000110: 2224 c13d 162c ddbd c94d 02be 0def 10be
00000120: 4b8a 56bd 5e92 88bd 7525 953d 9d4b 503d
00000130: 4c1b 10be 439e 253d cf6c f8bd 5de3 13bd
00000140: d32b 7b3d 6729 603d fcd2 7dbd 77bd 073d
00000150: 92f9 45bd e7c6 99bd 3e51 8ebc ee56 aabd
00000160: cc06 983d af9e 03bd d4ca a93d a64d fe3c
00000170: 4202 3ebd 23c2 823d ee93 4cbd 4dfa 9bbc
00000180: da96 d7bc 77a0 cd3d d7c0 8ebd 891a b1bd
00000190: 1110 e83d d2cd d73c d08a 943d 2fa6 253d
000001a0: 9e9b 42bd 603a 623d 27cc b4bd 0b47 b23d
000001b0: bbc7 f9bd f7fd 03be f577 843d 2372 f03c
000001c0: a9d7 183d e366 80bd 9499 0bbe 7cb5 503d
000001d0: da8f be3d e46f d3bd 927d a53d 4b85 5bbd
000001e0: d26f fbbd e38a cc3d af53 aa3d 2228 4e3c
000001f0: faba d63d c795 a6bd 14c8 a5bd 3838 4f3d
00000200: b4ee 34bd 60cf a3bd 4131 023e 2775 a83b
00000210: 3623 333e 30de f3bc 2529 073d 9117 c4bd
00000220: 93d4 b4bc c7a0 b93a d2f8 523d b541 1e3e
00000230: 7e41 24bc d5d0 50bc 02bb 6c3d c72d 49bd
00000240: 3014 693d 75d5 5dbd 6139 bbbd 0856 773c
00000250: c7ec 0a3e c261 843d 43ce a1bd d5d4 aa3d
00000260: 1b86 7abd 30af e6bc 63b9 003e 4eae 94bd
00000270: f06d 74bd 15c0 293e f44b 053c 2e83 96bc
00000280: 49d4 48bd 1bd0 113e 7d92 a53d f0d4 3bbd
00000290: 705f 9e3d bc5f 103e b69e 00bd 027d ff3c
000002a0: c22d 593d b060 013e b91f d53b d47e 3d3e
000002b0: 8db2 033e 4d3b 2e3e 1a85 24bc 7d07 04bd
000002c0: 2fa6 913d a2bc 5abb a6b5 1d3d 6546 fdbb
000002d0: ed20 a4bd cc6c 98bd e5c2 a13d 5943 d5bb
000002e0: 3571 55bd a5f0 c1bd 3f04 0fbd 26f0 073e
000002f0: 715f 093e a6d9 143d b733 edbd 7f59 ca3d
00000300: a649 383c 4f00 8b3d 72be 543c f7f7 9bbd
00000310: 3e66 2ebc 0b64 fd3c 787f a63d 63b5 6abd
00000320: 04af 9ebd 48cf b03d 20ab c6bb 0cac b63d
00000330: 821d 6d3d 9aa4 7d3d 1cbc 023e 5316 c9bd
00000340: 9e44 8abc 7115 763d 943d eb3c ac23 573d
00000350: b740 c6bd 31c8 38bd 39a1 0ebd a8f0 d93a
00000360: 7436 dabd a969 84bd 80c1 ca3d 849e d4bd
00000370: f7b6 21bc d588 a8bd 1e51 c2bc ba7e e13d
00000380: b99d a8bd 67a9 9abc 6f7a d73d 80a7 0d3e
00000390: 1b23 11be 35b2 103e eb92 cf3d 450c db3d
000003a0: 93f8 0a3d 6735 0f3d 2b60 a83d 0aef 82bd
000003b0: 4a3f 48bd c519 48bc 4de8 cf3d 1282 163e
000003c0: f158 6abd c7dc 163e 0ddc 83bd b1dc 843d
000003d0: fbb9 903d 24c7 b0ba 65e1 e03d 4791 74bd
000003e0: 799a 23bc d64c cebd eaf3 e2bd 6140 083e
000003f0: 150e 8c3d 4df4 9fbd dc1e 7abc 8ddf 13bd
-0.038146917 0.17030022 0.08329069 0.09463856 0.031885084 0.070476696 0.094643734 -0.0063289716
-0.045950282 0.025770556 -0.12637834 0.13149583 -0.040787924 -0.15353726 -0.0070255296 0.12743185
0.031898785 0.13019906 0.10888306 -0.08212039 0.07536409 0.040544715 0.014924886 0.0007798581
-0.115023926 -0.07204294 -0.00792791 0.005348703 -0.1178436 0.0635212 0.065010965 0.050226204
0.09818475 -0.08579113 -0.1311611 0.0038608268 0.054937765 0.104801215 -0.13321948 -0.035468988
-0.00043450194 -0.039356783 0.020313414 -0.029956112 0.11411344 -0.113357484 -0.05195697 -0.045231394
0.012078643 -0.07480533 0.064638555 0.00015101187 -0.099713385 -0.032862492 0.053374607 -0.09595628
0.1581039 0.14639004 0.061815836 -0.06922007 -0.035623983 -0.104780436 0.040365685 -0.035375044
-0.053142726 -0.054300267 -0.04274296 -0.015019487 0.0943072 -0.10799424 -0.12724985 -0.1415369
-0.05237798 -0.06668542 0.07282535 0.05085336 -0.14072913 0.040434133 -0.121301286 -0.036105502
0.06132109 0.054726984 -0.06196879 0.033139672 -0.048333712 -0.07508641 -0.017372724 -0.08317362
0.074231714 -0.032133754 0.082906395 0.031042885 -0.046388872 0.06384685 -0.049945764 -0.019040251
-0.026317049 0.10040372 -0.06970375 -0.08647639 0.113311894 0.02634326 0.07253039 0.04044169
-0.04751169 0.055231452 -0.088280015 0.087049566 -0.12196299 -0.12889849 0.064681925 0.0293513
0.037315045 -0.06269624 -0.13632804 0.050954327 0.09304781 -0.10324076 0.08080591 -0.053593915
-0.122771874 0.09987428 0.08316743 0.012582811 0.10484882 -0.081340365 -0.080948025 0.050590724
-0.044172958 -0.07998538 0.12714101 0.005140919 0.174939 -0.029769033 0.032998223 -0.095748074
-0.02207402 0.0014162295 0.051506825 0.15454753 -0.01002538 -0.012745102 0.057795532 -0.049115922
0.056904018 -0.054158647 -0.091418035 0.015096195 0.13566886 0.06463958 -0.079006694 0.08341376
-0.06116305 -0.028159708 0.1257072 -0.072598085 -0.059675157 0.1657718 0.008135784 -0.018373098
-0.049030576 0.14239542 0.08084581 -0.04585737 0.07733047 0.1409902 -0.03140136 0.031187538
0.053022154 0.1263454 0.006504026 0.18505412 0.1286108 0.17014809 -0.0100414995 -0.032233704
0.07111775 -0.0033376594 0.03850331 -0.007729339 -0.080140926 -0.07442626 0.07898501 -0.0065082726
-0.052109916 -0.094697274 -0.03491616 0.13275203 0.13415314 0.03634038 -0.115821294 0.09880351
0.011248028 0.06787168 0.012984859 -0.07615655 -0.010644494 0.030931493 0.081297815 -0.05730189
-0.07748225 0.08633286 -0.00606288 0.08919534 0.05788947 0.061924554 0.1276707 -0.09818711
-0.016878422 0.060079042 0.028715886 0.052524254 -0.09680312 -0.045112792 -0.034821723 0.0016627507
-0.10654917 -0.064654656 0.099001884 -0.10381797 -0.009870282 -0.08229224 -0.02372032 0.11010499
-0.08233208 -0.018879605 0.10521399 0.13833427 -0.14173548 0.1413048 0.10135444 0.106956996
0.033928465 0.034963038 0.082214676 -0.06393249 -0.048888482 -0.012213175 0.1015173 0.14698055
-0.057213727 0.14732657 -0.06438456 0.06487406 0.07066723 -0.0013487083 0.109804906 -0.05970886
-0.00998556 -0.10073249 -0.11081679 0.13305809 0.068386234 -0.078102686 -0.0152661465 -0.036101867

network.6.bias f4 [64]
00000000: 7583 7a3d 9539 5dbd 51c5 3fbd 59cc 3a3d
00000010: e4f7 00bd bb6a a03c 8395 ab3c 9e84 453d
00000020: 6c66 b13d ddb5 a93d 5842 ea3d 7fbe 993d
00000030: b04f 64bc 7231 d13d 8abd 5ebd 9718 ba3d
00000040: 06c3 8c3d 8abf 61bd 1d96 c9bd e981 77bc
00000050: 9af7 d83c 5618 44bd 2607 ef3d 2d3e 6a3d
00000060: 9d2b d7bd 63de c93d 4bf3 1cbd 85c8 dbbd
00000070: 9b9b 853d 5ebd c8bd b41b 973d 5ec6 4cbc
00000080: 8c23 7a3d 39da 8b3d a291 cfbd 4245 abbd
00000090: a5d2 43bd 0adf 5cbd 6305 c7bc 4a80 dabd
000000a0: 5f68 e1bc 6393 963d 13cc 683c f2e3 773c
000000b0: 4566 4cbd 6643 d23c fba0 b8bd 6da0 6c3d
000000c0: f164 a0bd 9c18 f8bd ef09 4cbd c149 443c
000000d0: efe6 13bd fbf1 6dbd 56e4 72bd f35f 56bd
000000e0: 8f75 91bd 1b72 60bc 3c41 c13d 66be 97bd
000000f0: 61e2 c8bd 0360 373d 844d da3d ec1c ac3d
0.061160523 -0.054009993 -0.046819035 0.045605037 -0.031486407 0.019582143 0.020945316 0.048222177
0.086621135 0.08286641 0.11438435 0.07507037 -0.013935015 0.10214509 -0.054379977 0.090867214
0.06873135 -0.055114307 -0.09843085 -0.015106657 0.026485253 -0.04787477 0.11671285 0.0571882
-0.105063654 0.0985687 -0.03831796 -0.107316054 0.0652382 -0.09801744 0.07378331 -0.012498466
0.061069056 0.06828732 -0.10135199 -0.08362819 -0.04780831 -0.053923644 -0.02429456 -0.106690004
-0.027515588 0.073523305 0.014208811 0.01513003 -0.04990222 0.025666904 -0.090150796 0.05777018
-0.07831753 -0.12114069 -0.04981416 0.011980475 -0.036108907 -0.0580921 -0.05929979 -0.052337598
-0.07102501 -0.01369908 0.094362706 -0.074093625 -0.09808803 0.0447693 0.10659316 0.08403954

network.9.weight f4 [32, 64]
00000000: feb6 073e 7c17 0cbe bff8 013d f8a7 c83c
00000010: 8fb5 473d 2d5c c13c 577d cf3c db34 c43d
00000020: c767 66bd 66b3 eb3d a9d0 2a3c 8510 1abe
00000030: 0459 8d3d bc7e fe3c 4ebe 5a3d 7366 89bd
00000040: 8133 953c 9f71 0d3e 97f3 13bd 14ed 9f3d
00000050: 4489 93bd 4177 c13d efad 8f3c e588 e33d
00000060: df43 9a3d 5b7b ff3c 8e9a 2d3d 8462 b2bd
00000070: 4c93 37bc 0bdb 8abd e3d2 473d c0be bdbd
00000080: e060 7d3c 5fff 1e3c de04 67bd a0de 9c3d
00000090: 5710 803d 865e 4c3d 9d29 833d ed3b e0bc
000000a0: fb48 adbd d21a 933d b962 94bd 8e2a 903c
000000b0: 2b33 4ebd cd4e f4bd 7d20 1d3c 7906 adbc
000000c0: 94ad 91bc 2434 603c d0c7 c03d bebd 153e
000000d0: 48ff 923d d789 cc3d da57 02bc 9537 46bd
000000e0: a9c7 783a 6efb 733c a7b8 b1bd 278f dabc
000000f0: c86f 1dbe a3b2 73bb 29e0 a6bc 0fb2 d03d
00000100: 3e17 26be 7d26 46bd c4e0 6b3d 6d7c bd3d
00000110: 93a4 3cbd 33c4 263c b936 213e 22ea 643c
00000120: fbbe 8ebd 4e81 84bc d180 f83c 70c0 1b3e
00000130: abee 953c ffc7 893d 17e2 19bd 3efc aa3d
00000140: 6b2b 223d 4398 f7bd 07fc cebd 529f 383d
00000150: f2fb 3a3e a0cf 003e af7b ac3d 95af cfbd
00000160: 8bf8 833d c593 44bd 19ab a9bd 508a 27bc
00000170: d1db be3d 3bae 863d 580f 143d 8d0e 8bbd
00000180: 2a0b 313d add9 a5bd 4631 edbc fee2 1c3e
00000190: 0b71 85bd 4547 323d 6cb3 efbc 38cf ea3d
000001a0: 95f1 02bd 809b 2b3d e67e f03d a7bd 8ebd
000001b0: 3c75 0e3d df9f 1c3e 236f cabd 1f33 f03d
000001c0: 922e 233e 62fd c7bc 3dec e9bd ed8c 993d
000001d0: cb92 073e a6e4 8abc 004d 17be 5e3a d53d
000001e0: 69b8 833d 1941 2fbd efaa 863d 3097 26bd
000001f0: d9b8 323d 5c39 0e3e c554 92bc 11cf b53d
00000200: 6e0f 183e 8895 94bd 3e77 903d 3698 bfbc
00000210: 281b 243d c899 fabd 1c6a 763c fd38 0e3c
00000220: 653f 793d 2d66 a4bc 22f5 883b 7dbb f4bd
00000230: 1b33 0f3e f6ef a33d 82ab bbbd 3ef3 b9bd
00000240: e037 403d 89e3 143e 91e3 d7bd 4eae d53d
00000250: 4d9a e63c 91e2 babd 8085 7d3d 7a03 af38
00000260: 5d27 25bd 6689 a9bc 785d 813d 75ff 163e
00000270: 6975 103c c28d 25bd a308 8d3d c428 afbd
00000280: 3263 b23b f57a 9c3d 0054 8bbd 2fe5 2e3d
00000290: 98af 34bc d6ce e5bc 28bf aabd 26eb 0d3e
000002a0: cdb1 713d 90bf e03c 72ab c6bd c42b e1bd
000002b0: 4fed f6bd 56c4 51bd 7f36 e43c 3073 4b3d
000002c0: c42d 963d e21d cabd 3e91 9b3d 2465 233d
000002d0: 30d4 d7bc caa4 f03d 1f71 523d 6972 81bc
000002e0: d129 bd3d 2128 b6bd 9bac 4f3b 8d11 dd3d
000002f0: c8d9 d8bd 6071 863c 2e7c f1bd 2eac a53d
00000300: 1051 d5bd 0232 bc3b 8160 6c3d cc01 d13d
00000310: b8d8 8f3c 59a7 9a3d 3bfd 47bd 8687 dd3c
00000320: ee8d 193c 4da2 ac3d 79a8 3e3d 9fe1 7c3d
00000330: 00f5 a6bd 3686 84bd 7730 01bd 7696 aebd
00000340: 95a1 c43c d120 97bc d559 0e3e 3269 19bc
00000350: 159a 363e 758b 65bd 0cd6 053e 3ead 8cbc
00000360: 02a0 89bc fa18 2f3c 23bb 04be d14d dfbd
00000370: 6e91 76bd 1cdb 503d 22ea eabc 4f25 183e
00000380: 3f90 733d 2d3a 5e3d eaba d03d 56bf d73d
00000390: 9172 d73d 46ba f9bc 374b 83bd dc64 013e
000003a0: 0b7d 43bd 889c 8dbd 56a9 9fbd a347 a43d
000003b0: e57b 4a3d f77c 873c 9502 b3bc 46f3 a63d
000003c0: d879 38bd 9c48 23ba 5046 533d ac76 683d
000003d0: e59e 0c3e 2b8d 4ebd b7db 72bb 0d25 993d
000003e0: 3704 1f3d d4ee 7abd e5b3 073e d460 ab3b
000003f0: 5277 fa3d a2b0 573c 2cd1 a13c 685c 8f3d
0.132534 -0.13680834 0.031731363 0.024494156 0.048757132 0.023603523 0.025328321 0.09580394
-0.056251314 0.11508827 0.010425725 -0.15045364 0.06901744 0.031066291 0.053404145 -0.06708994
0.018213036 0.13812874 -0.036120977 0.07808891 -0.07203916 0.09446574 0.017538993 0.11110095
0.07532477 0.03118675 0.042383723 -0.087101966 -0.011204552 -0.067800604 0.0487851 -0.09264898
0.015464991 0.00970444 -0.056401126 0.0765965 0.062531166 0.049894832 0.064044215 -0.027372325
-0.084611855 0.0718285 -0.07245392 0.017598417 -0.050341766 -0.119290926 0.009590265 -0.02112125
-0.017782964 0.013684306 0.09413111 0.14623162 0.07177597 0.09987228 -0.007955516 -0.04839285
0.0009490201 0.0148914885 -0.08677798 -0.026679588 -0.15374672 -0.0037185333 -0.02037056 0.10190212
-0.16219804 -0.04837655 0.0575874 0.09252248 -0.046055388 0.0101786135 0.15743531 0.013971837
-0.069700204 -0.016174939 0.030334862 0.15210128 0.018302282 0.06727599 -0.03756913 0.08348893
0.039592188 -0.120895885 -0.10106664 0.045073815 0.18260172 0.12579203 0.08422028 -0.101409115
0.0644389 -0.047992487 -0.082845874 -0.010225847 0.093192704 0.065762006 0.036147445 -0.06789885
0.043223538 -0.08098159 -0.02895416 0.15320966 -0.06515702 0.043525 -0.02926036 0.11465305
-0.03196867 0.041896343 0.11742954 -0.06969767 0.034779772 0.15295361 -0.09884479 0.117285006
0.15935734 -0.024412815 -0.11422012 0.074975826 0.13239591 -0.016954731 -0.14775467 0.10411523
0.06431658 -0.04278669 0.06575572 -0.040671527 0.043633316 0.13889068 -0.017862687 0.088773854
0.14849636 -0.07255083 0.07053994 -0.02338801 0.04006496 -0.12236363 0.015039947 0.008680579
0.060851473 -0.020068252 0.0041796127 -0.11949823 0.13984339 0.08004753 -0.09163572 -0.09079598
0.046928287 0.14539923 -0.10541452 0.104336366 0.028149748 -0.09125245 0.061894894 8.345298e-05
-0.040320743 -0.0206954 0.06316656 0.14745887 0.008817055 -0.040418394 0.06886413 -0.08552697
0.005443954 0.0764064 -0.06803131 0.042699035 -0.011028193 -0.028052729 -0.083372414 0.13859233
0.059007455 0.027435094 -0.09700669 -0.10994676 -0.12056982 -0.05121263 0.027858017 0.0496704
0.07332948 -0.09868981 0.07596062 0.039891377 -0.026346296 0.11750181 0.051377412 -0.015801625
0.092364915 -0.08894373 0.0031688574 0.10794363 -0.105884135 0.016411483 -0.117912635 0.08089481
-0.10415852 0.005743266 0.05770922 0.10205421 0.017559394 0.0755145 -0.048825484 0.027042162
0.009372218 0.08429394 0.046547387 0.061738607 -0.08152199 -0.06470911 -0.03154036 -0.08524792
0.02400283 -0.018448265 0.13901456 -0.009363459 0.17832215 -0.0560412 0.13069934 -0.017172452
-0.01679993 0.010687107 -0.12962012 -0.10903514 -0.060197286 0.05099021 -0.028676096 0.14857982
0.059463736 0.0542547 0.10191901 0.10534541 0.10519899 -0.03048433 -0.064108305 0.12636131
-0.047726672 -0.069146216 -0.0779597 0.08021476 0.04943456 0.01653908 -0.021851817 0.081518695
-0.045038074 -0.0006228776 0.051580727 0.0567538 0.13732488 -0.050427597 -0.003705723 0.0747777
0.03882238 -0.06126292 0.13252218 0.0052300487 0.1222979 0.013164671 0.019753061 0.07000047
