models/PyTorch_state_dict.pth (torch, 89314 bytes, 17 tensors)

network.0.weight f4 [128, 40]
00000000: e881 c6bd e555 853d c514 393e 11f1 4f3c
00000010: 847b 0b3e 1491 513d b3e6 273e 9aaa be3d
00000020: 1f95 1b3e a04c eb3d 081d ed3d b7d9 c9bd
00000030: 87a3 35bd c7af aa3d 3c42 18be 02b7 50bd
00000040: 197c 913d 6635 d23d 36a3 ca3d d59c c7bd
00000050: 83ba ad3d c30b bcbd 19c9 88bd 1bf9 123e
00000060: a86d 313d 2606 a23d 3a04 a7bd 4fd4 2f3d
00000070: 40dd a1bd a03f 983d f762 1b3d e19b fb3d
00000080: 75b0 263d 7e8c 11be 8c54 fb3d cb89 8abd
00000090: f554 8bbd 26da f5bd 424a 2ebd 8069 a2bd
000000a0: b358 a23c a718 d2bd 13af 533d c57a bf3d
000000b0: eb61 9a3d 11c3 9f3d e336 3e3d 953c efbc
000000c0: c5d1 023e f3c3 42bd 1415 5cbd 091a 31bd
000000d0: 9aef fd3d 8f20 983d 35cf ce3d bb34 1dbe
000000e0: ebdf 113e a490 06bc 5eae 343d fd7d 933d
000000f0: 2362 debd fb68 8ebd 3d5c 063e 4d4a f33d
00000100: fc7d 3d3c 0a9f 84bd 5aca b9bd 81b9 053e
00000110: 9670 55bd 9faf 793d eb08 b1bd 2842 c73d
00000120: 8135 a0bb 935e 94bd 06b2 183e 7d04 203e
00000130: 738a 0b3e a430 e03d 6c61 273e 34c5 e83d
00000140: 42be 07be 4992 90bd da85 b6bd 5919 21bd
00000150: 0291 103e 0306 003e 666d ee3d 9093 8fbd
00000160: 5e0e 7d3d 0dbf e1bd 2c9d e33d 56f8 67bc
00000170: e4a6 08bd 83e2 283e 97e0 8dbd 5ad5 12bc
00000180: a968 37bd 30a4 173e ba24 e1bd 642c 43bd
00000190: fa4b 203d 0a72 57bd f773 8fbd f49a 86bd
000001a0: 6162 2ebd 75a9 c83c 467a b9bb 7a78 ed3d
000001b0: 23f0 153d 61d5 d6bd bcfc 853d 84ef 033e
000001c0: 195b d63d ad6a 64bd 285f 1fbd f9c8 91bc
000001d0: c010 2d3e 2bd0 bd3d 2925 62bc c343 083e
000001e0: 0e41 f2bd c634 1bbe 0db2 b43d 19ed b53d
000001f0: 993b 62bd 1fc8 9ebd 0c07 1abd 1d32 32bd
00000200: fd1c 3d3d 8e43 31bd eccb d4bd 5910 633d
00000210: 2d19 193e b8f1 fb3d 3251 593b 29b6 1cbd
00000220: 1f11 1abe dfe7 91bd 98fe 903d 72b9 da3d
00000230: 42db f4bd 2654 0abe d977 afbd 0af8 e1bd
00000240: 4459 a2bd 4108 37bd f1e7 9e3c 882e 173c
00000250: 06e4 0fbe 2d4f 813b e216 f33d 22df 1dbc
00000260: 77bc 3dbc 4e0e d93d 8eb3 26be cec8 11bd
00000270: 6696 0c3e 8479 0fbe 042b aebd 8d9e c8bd
00000280: cc3a 013e 2995 3b3e 37dc 09be c9c4 5dbd
00000290: 3010 fa3c 7163 6a3d 7377 59bb 22f9 1dbe
000002a0: 4ce6 9bbd 5c55 83bd e9a1 6d3a b8fc 72bd
000002b0: 3f01 aabc ba16 20be b239 0abe 3a3e 863a
000002c0: 00e1 3cbc 8887 f43c 157c 0c3e ef52 18be
000002d0: 4fc2 ebbd 83e7 8bbc 7639 a93d df17 d43c
000002e0: 5657 babd e8a4 26be 9d58 3d3d 9c48 8fbd
000002f0: 0d06 193e 0c52 cbbd 3a65 9a3d 7e53 96bd
00000300: 0b0d be3d 1f09 3abc 063d bdbd d265 52bd
00000310: 0e8a b5bd 7c7c 083d 863c 9e3d 2019 d2bd
00000320: 760a c33d cb8b e93d b6eb b33d da58 0abe
00000330: 7aa7 b13d a338 6c3b ce8d f83d 9881 253d
00000340: a293 87bb d64f 233e 9ee9 da3d 8324 0bbe
00000350: 86cb f3bd cffa 91bc b650 d0bd 045f f6bd
00000360: 7c66 8c3a fed1 e5bd 21b2 0cbe e866 b0bd
00000370: ace8 1ebd 393a dc3d fa02 24be e38f 9b3d
00000380: 53d6 5c3c cad1 8a3c fc01 03be 4a88 b13c
00000390: 0dd2 05be 46dc 94bd b590 f1bd a840 c33d
000003a0: ad32 1dbe 6e8e c73d d608 9fbd d5f8 8dbd
000003b0: 40eb 1b3e dce1 bf3d 38d5 8e3d 2de6 0e3d
000003c0: 0e1b d3bd 0184 66bd fe79 25bc af9c d7bd
000003d0: 6d71 07be 52db 903b b592 ac3d 4097 233e
000003e0: ce6c 1dbe 3662 223b 454d e9bc 19f9 fc3d
000003f0: 0501 113e 62e0 243e a9db f0bd 37e4 fb3c
-0.096927464 0.06510524 0.18074329 0.012691752 0.13621336 0.051163748 0.16396599 0.093098834
0.15193604 0.114892244 0.11577803 -0.09855979 -0.044345405 0.08334308 -0.14869016 -0.05095578
0.07103748 0.10264091 0.09894411 -0.0974671 0.0848284 -0.09181931 -0.06678981 0.14352839
0.043317467 0.07911329 -0.08155103 0.042927083 -0.07903528 0.074340105 0.037936177 0.12285591
0.040695626 -0.1421375 0.122719854 -0.06764563 -0.06803314 -0.12004499 -0.042551287 -0.07930279
0.019817686 -0.10258608 0.051680636 0.09349588 0.075382076 0.07800878 0.046439063 -0.029203692
0.12775333 -0.047550153 -0.05373104 -0.04323772 0.12399216 0.07428085 0.10098115 -0.15352146
0.14245574 -0.008213196 0.044111602 0.07201765 -0.10858562 -0.06953617 0.13121124 0.11879406
0.011565682 -0.06475647 -0.090717986 0.13059045 -0.052109323 0.0609585 -0.08644279 0.09729415
-0.0048891907 -0.07244601 0.1491166 0.15626712 0.13627033 0.109467775 0.16345757 0.113657385
-0.13256171 -0.07059152 -0.08912249 -0.039330814 0.14117816 0.12502293 0.1164196 -0.07010567
0.06178128 -0.11022768 0.111139625 -0.014158329 -0.033362284 0.16492657 -0.06927603 -0.008962
-0.044777546 0.14808726 -0.10993333 -0.047649756 0.039134957 -0.05259899 -0.070045404 -0.06572524
-0.04257429 0.024494866 -0.005660328 0.11595245 0.036605965 -0.104899175 0.06542346 0.12884337
0.10466594 -0.055765796 -0.038909107 -0.017796027 0.16900921 0.092682205 -0.013802805 0.13307099
-0.118288144 -0.1515685 0.08823023 0.088831134 -0.055232618 -0.07753014 -0.037604377 -0.043504823
0.046170224 -0.043277316 -0.103904575 0.055435512 0.1495101 0.123019636 0.0033159968 -0.03825966
-0.15045594 -0.07124304 0.0707981 0.10679902 -0.119558826 -0.13508663 -0.08567781 -0.11033638
-0.07927182 -0.044685606 0.019397708 0.0092274025 -0.14051828 0.003946206 0.11869599 -0.009635719
-0.011580578 0.105984315 -0.16279432 -0.035591893 0.13729247 -0.14011198 -0.08504298 -0.09795866
0.12620085 0.18318619 -0.13462912 -0.054142747 0.030525297 0.05722374 -0.003318277 -0.15427068
-0.07612285 -0.064127654 0.0009064959 -0.059323043 -0.020752547 -0.1563367 -0.13498572 0.0010241934
-0.011528254 0.029849783 0.13719209 -0.14875387 -0.11511671 -0.017078167 0.08262913 0.025890289
-0.09098689 -0.16273844 0.046227086 -0.06996271 0.14943714 -0.099277586 0.07538839 -0.073401436
0.092798315 -0.011354714 -0.09240155 -0.051366635 -0.088642225 0.033321843 0.07726388 -0.102586985
0.0952348 0.114036165 0.08785193 -0.13510457 0.08674522 0.00360445 0.12136422 0.040406793
-0.0041374722 0.15948424 0.1068909 -0.13588147 -0.119040534 -0.01781979 -0.101716444 -0.120298415
0.0010711695 -0.112216935 -0.13739826 -0.08613378 -0.038796112 0.107532926 -0.1601676 0.075958036
0.013478833 0.016945738 -0.12793726 0.021671433 -0.1306841 -0.07268576 -0.11795179 0.095338166
-0.15351363 0.09743963 -0.07765357 -0.069322266 0.1522646 0.09369251 0.06974262 0.03488748
-0.10307895 -0.056278232 -0.010099886 -0.10527932 -0.13226862 0.0044206763 0.0842642 0.15975666
-0.15373537 0.0024777777 -0.028479228 0.12352199 0.14160545 0.1610122 -0.11760647 0.03074847

network.0.bias f4 [128]
00000000: e1f8 c3bc d5fa 51bd 3433 61bd 50ec 77bd
00000010: 9cfd 1a3e a98f a7bd febd 063d da9d d7bc
00000020: e91d 163d 5e6c 17be 0156 7dbd a6f8 1ebe
00000030: 2b51 7b3d 5141 133e 2498 803d 48b7 0c3e
00000040: b63c e33d f367 113e f060 bf3d ccee 38bc
00000050: 0048 f53d 861e ed3c 6f0b e03d c386 2e3d
00000060: f558 01be 83ab 9dbd a075 86bd de0c e13d
00000070: 8794 c83d 1e4c d93d fb8b bf3d 61fe 1f3d
00000080: bcab 32bd 8d0e 1a3e e1ea 193e a37f 79bc
00000090: 1c73 c8bd d7c5 f53d ac56 c83d ccb5 18be
000000a0: 460c ac3c 73ea 473b 8553 fabd 8199 f0bb
000000b0: 9223 77bd e062 37bd 1a4f 7ebc 42d3 8c3d
000000c0: cf01 113d 45ac 253d 3dc8 cbbc a95f 45bd
000000d0: 5e2a 193e 3050 4bbd 22f8 febc 5160 1fbe
000000e0: fa71 ea3c 7950 d33c c228 aa3d 3f95 a2bd
000000f0: 85b9 053e 73af b93d f242 09bd 3f14 063e
00000100: 4a59 8f3c 8557 b2bd 0fff 1cbd 01d9 c4bd
00000110: 6b01 86bc 7242 003e 093e bfbc c65e d3bd
00000120: aa65 e43d e40d 183e 09a1 f03d 5cb2 06be
00000130: eb96 ca3d c491 b73d 5466 bd3d 91ad d1bd
00000140: 40c9 37bd 09b6 183e ba56 e63d ba82 1e3e
00000150: 6744 26bd 040d be3c 9ddd 9fbc 1330 b7bd
00000160: f063 073e c879 be3d 084e 86bd 31f4 e43d
00000170: 2c17 1ebe d7ba 803c f378 9b3d dc17 bebc
00000180: 0753 0b3d a8dd 7a3d 528e 0f3e 1989 5c3d
00000190: 2795 5fbd a627 5c3d 30d7 b43b 8a6a 39bb
000001a0: 5c9f b53d ab7c 503d 2b9e 7b3c 4190 ba3d
000001b0: 3561 43bc 0a66 65bd 9ba8 5bbd acb0 d13d
000001c0: 2639 e6bb 76f6 e33d 4160 60bd a10c 193e
000001d0: d744 023e cc19 e03d cd0e 8abd 1ad3 adbd
000001e0: 2a63 6b3b 1f63 62bd 0890 313d 877a 8f3b
000001f0: 8f74 90bd 471c 31bb 3d95 12be e516 373d
-0.023922386 -0.051264603 -0.05498047 -0.0605281 0.15135807 -0.08181698 0.032896034 -0.026320387
0.03664962 -0.14787433 -0.061849598 -0.1552454 0.061356705 0.14380385 0.062790185 0.13741791
0.11095564 0.1419981 0.09344661 -0.011287402 0.119766235 0.028945219 0.10939681 0.042608988
-0.1263159 -0.07698729 -0.06565404 0.10988782 0.09793954 0.10610221 0.09352871 0.039060954
-0.04362081 0.15044613 0.15031005 -0.015228185 -0.0978758 0.120006256 0.09782156 -0.149131
0.021001946 0.0030504733 -0.12222961 -0.007342518 -0.060336657 -0.04477203 -0.015521789 0.06876232
0.035402115 0.040447492 -0.024875754 -0.04818693 0.14957568 -0.04963702 -0.031124178 -0.15564086
0.028618801 0.025795208 0.08308555 -0.07938623 0.13059051 0.090666674 -0.03351111 0.13093661
0.017498631 -0.08708099 -0.03832918 -0.09611703 -0.016358098 0.12525347 -0.02334501 -0.10320811
0.111522034 0.14849049 0.11749465 -0.13153976 0.098920666 0.089633495 0.09248033 -0.10238183
-0.04486966 0.14913191 0.112470105 0.15479556 -0.040592577 0.023199566 -0.019514853 -0.08944716
0.13221717 0.09300572 -0.06557852 0.11179388 -0.15438527 0.015714092 0.075914286 -0.023204736
0.034014728 0.061246544 0.14019135 0.053841684 -0.054585602 0.05374875 0.0055188164 -0.0028292262
0.08868286 0.050900143 0.015357534 0.091095455 -0.011925031 -0.056005515 -0.05362759 0.102387756
-0.0070258556 0.11130993 -0.054779295 0.14946224 0.12721573 0.1094242 -0.06741104 -0.0848753
0.003591726 -0.05527031 0.04335025 0.00437862 -0.07053482 -0.0027024911 -0.14314742 0.04469957

network.1.weight f4 [128]
00000000: a207 813f 6032 7b3f 5a30 7f3f 7a81 803f
00000010: 796f 803f dbad 763f 1ce3 7f3f e590 783f
00000020: 4524 7d3f df23 813f d6c8 7d3f 2e8a 7f3f
00000030: 2a65 823f 6d90 803f 7133 853f f301 803f
00000040: f08d 823f 8e59 813f 3f37 763f 18af 813f
00000050: ff6e 7f3f 309c 833f d5ac 7d3f 6ae8 763f
00000060: cf18 7d3f ee8d 813f 3c79 823f cdb3 7f3f
00000070: 34d5 763f 1320 7d3f fbcb 823f e9c2 823f
00000080: 6b37 803f 8fbf 7c3f 5b84 7f3f d56d 823f
00000090: eb7b 813f 4ac7 803f 71e4 773f 820f 7e3f
000000a0: 128c 813f 0735 7e3f 5220 823f 1bd9 823f
000000b0: de1f 803f 81ff 803f 5fe3 843f ffc3 773f
000000c0: 5cc2 833f c860 833f ca22 7e3f 7d82 743f
000000d0: 5694 7e3f 1287 7b3f 1d87 7b3f 77b9 7d3f
000000e0: 0d2b 803f db3c 763f 4549 813f ffd4 7b3f
000000f0: ff98 803f 162a 7d3f b228 7a3f d8a7 803f
00000100: f466 7b3f b5dc 783f 60d0 813f f83b 7e3f
00000110: e03d 813f fb1b 7c3f 3d1b 813f d0f7 833f
00000120: 4a6a 7e3f a719 7f3f d4d9 7b3f c2f2 7b3f
00000130: ac1d 783f 6e79 853f 8833 813f 327c 7f3f
00000140: 9054 7f3f aca2 793f d56a 7a3f 0e1c 7a3f
00000150: 1f32 813f e37a 823f 8f68 7e3f 6a0f 7b3f
00000160: 7177 803f 6cfe 7f3f b749 803f 3e44 803f
00000170: 87c1 7e3f 7cbc 803f da91 7f3f 3e6f 803f
00000180: 2dbb 803f 8499 7c3f 41d3 763f 2805 833f
00000190: 6f20 783f ed82 7a3f d1cc 823f 4a4b 813f
000001a0: 59cf 803f 2c26 803f f6fb 763f e543 823f
000001b0: c209 763f b614 7e3f 367e 853f ee6c 823f
000001c0: f151 813f f8ea 843f ff81 7f3f 76bf 803f
000001d0: dc89 7e3f 0795 803f 6af9 793f 412c 873f
000001e0: 8d1c 793f 1328 813f 69e1 783f 873d 7c3f
000001f0: 6196 7e3f 0880 7b3f 9d3b 7c3f d4f2 823f
1.0080454 0.9812374 0.99683154 1.0039513 1.0034019 0.9635903 0.99955916 0.9709609
0.9888347 1.0089072 0.99134576 0.9982022 1.0187123 1.0044075 1.0406324 1.0000595
1.0199566 1.0105455 0.9617805 1.0131559 0.9977874 1.028204 0.99091846 0.96448386
0.9886598 1.0121439 1.0193248 0.9988373 0.9641907 0.98877066 1.02185 1.0215732
1.0016912 0.98729795 0.99811333 1.0189768 1.0115942 1.0060818 0.9683295 0.99242413
1.0120871 0.99299663 1.0166113 1.0222505 1.0009725 1.0077974 1.0381888 0.9678344
1.0293689 1.026391 0.99271834 0.9551161 0.9944509 0.98252976 0.9825304 0.9911112
1.0013138 0.9618661 1.0100485 0.9837188 1.0046691 0.98892343 0.97718346 1.0051222
0.9820397 0.9721177 1.0141716 0.99310255 1.0097008 0.98480195 1.0086437 1.0310001
0.99380934 0.9964852 0.98379254 0.98417294 0.96920276 1.0427682 1.0093851 0.9979888
0.9973841 0.9751384 0.9781926 0.9769906 1.0093421 1.0193752 0.99378294 0.98070395
1.0036451 0.9999759 1.0022496 1.0020826 0.9951405 1.0057521 0.99831927 1.0033948
1.0057122 0.98671746 0.964161 1.0235949 0.9692449 0.97856027 1.0218755 1.0101101
1.0063277 1.0011649 0.9647821 1.017697 0.9610864 0.9925035 1.0429142 1.0189493
1.0103132 1.0384207 0.99807733 1.0058429 0.99429107 1.004548 0.976462 1.056038
0.9730919 1.0090355 0.9721895 0.98531383 0.9944821 0.98242235 0.9852846 1.0230355

network.1.bias f4 [128]
00000000: c9cc dc3c 348b c33b 082e b8bc 1b0e 273d
00000010: 3c02 db3c a73a 66bc aaba 08bd 0a39 fc3a
00000020: dc9e 0dbb 4477 dd3c f4da e93a c0dc bbbc
00000030: 96b3 3cbc d6ee 0a3d d8a4 eb3c bb59 fdba
00000040: 0547 9abc 68e1 36bc 26bb c5bc ce71 913c
00000050: b827 02bc 2560 703c 97bb 0b3d ce0e 01bd
00000060: 1573 01bd f1cb 883c 47f2 da3c 48db 5dbd
00000070: 9aec 23bb dbf0 173c b3f0 d73c 8823 93bc
00000080: 3a16 5cbb 2b1c 2ebb 01d8 adbc a577 2e3c
00000090: b427 263d df17 4d3c ba12 1fbd dec9 663d
000000a0: 1e9b 34bd dcf7 2d3c e3c4 bfbb e026 9a3c
000000b0: 0a48 8a3c 3a6f 4a3d 3f93 5b3d 4492 22bd
000000c0: 01fd 25bd 2543 4c3b 16e3 263c db75 3dbd
000000d0: 7d55 7cbb d65c 32bd ed20 cdbc a51f cebb
000000e0: 8c7d 863b 1569 2bbd ef49 9ebc b1f5 163d
000000f0: 39df 34bc c549 1b3c d7b7 a8bc 000a 11bd
00000100: 9171 3dbc 2efb 4dbc 4a4f 07bc 87a6 aebc
00000110: 040f b23c 76e7 3bbc 8644 10bc 47af 8bbc
00000120: 9417 12bc e8c0 0a3d cc80 37bd 280b 3dbc
00000130: 929d 9fbc f09a ec3c 4905 9f3c 99c0 00bd
00000140: 0b86 f7bc 2cd3 b5bc 24e9 cfbc 3667 51bd
00000150: c3f6 e13c 6c3e 2c3c 5844 d1bc 3c7c 8e3c
00000160: 45a4 3ebc 0570 933b 71d4 613c 7cd1 79bc
00000170: d8a7 9d3c d729 c5bb d2b8 823c 4ef4 e63c
00000180: 276a 0cbd 3d0a d4bc 585d 61bd 36b8 3abc
00000190: 450f 17bd f237 6abd ed3a 283c e129 0ebd
000001a0: ea34 8abb 3658 393c bf99 35bc c208 28bc
000001b0: f8c5 d3bc c69b 41bd 32ed 983c 7b48 96bc
000001c0: 7a00 ae3c 1265 81ba bdbb 3bbd 20f6 a8bc
000001d0: 5277 23bd d87d 8a3c cad8 17bd ee44 74bc
000001e0: 95ce 76bc a2f4 3dbc 4843 d7bc 939b ebbc
000001f0: 2447 7bbc fbf1 32bd b738 17bd 9c38 df3b
0.026953118 0.005967522 -0.022482887 0.040784936 0.026734464 -0.01405207 -0.03338114 0.0019243073
-0.002160958 0.02703441 0.0017841742 -0.02293241 -0.011517426 0.033919178 0.028765127 -0.001932911
-0.018832693 -0.0111621395 -0.02413709 0.017754462 -0.00794404 0.01467136 0.034114446 -0.03150826
-0.03160389 0.01669881 0.026726855 -0.0541642 -0.0025012852 0.009273733 0.026359892 -0.017961279
-0.0033582584 -0.0026567082 -0.021221163 0.010648643 0.040565208 0.012517898 -0.03883622 0.05634486
-0.044093244 0.010618176 -0.005852328 0.018817365 0.016880054 0.04942248 0.05360722 -0.03969027
-0.040524486 0.003116795 0.010185977 -0.046254974 -0.0038503103 -0.043545566 -0.025040114 -0.0062903934
0.004104322 -0.04184826 -0.019322364 0.036855403 -0.011039549 0.009478037 -0.020595474 -0.035409927
-0.011562721 -0.012572093 -0.00825865 -0.02131964 0.021735676 -0.011468759 -0.0088054 -0.017051352
-0.008916754 0.033875376 -0.044800565 -0.011538304 -0.019484315 0.028882474 0.0194117 -0.031433675
-0.030215284 -0.022195421 -0.025379725 -0.05112382 0.027583485 0.010512929 -0.025545284 0.017393224
-0.011635845 0.0044994378 0.01378356 -0.015247699 0.019245073 -0.0060169506 0.01595727 0.028192665
-0.034280922 -0.025883788 -0.05502066 -0.011396458 -0.036879797 -0.05718226 0.010267955 -0.034707908
-0.0042177336 0.011312535 -0.011084019 -0.010255994 -0.025851235 -0.047267698 0.018667791 -0.018345108
0.021240462 -0.000987204 -0.045833338 -0.020625174 -0.039908715 0.01690571 -0.03707198 -0.014909012
-0.015063901 -0.01159397 -0.0262772 -0.028760707 -0.015336785 -0.0436878 -0.036919322 0.0068121683

network.1.running_mean f4 [128]
00000000: b5ef c3bc 0be6 51bd 7bf5 60bd 4eb8 77bd
00000010: f7f5 1a3e 6678 a7bd 31cd 063d 859d d7bc
00000020: 4420 163d 3360 17be 3c41 7dbd a9f2 1ebe
00000030: 7539 7b3d 4b34 133e af92 803d 9ea5 0c3e
00000040: e659 e33d 905a 113e d656 bf3d baff 38bc
00000050: 533b f53d 9cfe ec3c 6f00 e03d 3578 2e3d
00000060: 295a 01be 18be 9dbd 4953 86bd b8fd e03d
00000070: a791 c83d ec3e d93d 4769 bf3d f9fc 1f3d
00000080: 06a0 32bd 2008 1a3e 2ae1 193e 16f7 78bc
00000090: 655f c8bd e1ba f53d c049 c83d 10b0 18be
000000a0: f615 ac3c b42c 463b dd5d fabd 300f f1bb
000000b0: 8712 77bd 5260 37bd e56e 7ebc f0c9 8c3d
000000c0: cff6 103d 579e 253d 348d cbbc dc50 45bd
000000d0: 921e 193e 4047 4bbd b6fb febc b154 1fbe
000000e0: 5b5f ea3c e950 d33c bb21 aa3d 0c8a a2bd
000000f0: 68b2 053e a3a2 b93d 3b3b 09bd a105 063e
00000100: 7a53 8f3c be50 b2bd 15e8 1cbd 6acc c4bd
00000110: 48c8 85bc 8d37 003e c02e bfbc c955 d3bd
00000120: b95a e43d 1c08 183e a389 f03d 79a7 06be
00000130: 2e8c ca3d 0a7a b73d cb4f bd3d 7fa0 d1bd
00000140: 99b7 37bd 36ab 183e db42 e63d dd79 1e3e
00000150: 9610 26bd 09f5 bd3c 6ed9 9fbc 7a24 b7bd
00000160: ba5d 073e ee7a be3d 4545 86bd b1e1 e43d
00000170: cf08 1ebe 428e 803c 0775 9b3d 95fb bdbc
00000180: 764c 0b3d 4fd9 7a3d 3e89 0f3e be81 5c3d
00000190: a886 5fbd cc16 5c3d a61a b43b eb7c 38bb
000001a0: 8e87 b53d 5d4a 503d a4ce 7b3c 6877 ba3d
000001b0: 2551 43bc 6a60 65bd 6a80 5bbd 8e9f d13d
000001c0: beb2 e4bb 36e7 e33d de6e 60bd fc0b 193e
000001d0: c43d 023e d70b e03d c104 8abd e6c1 adbd
000001e0: 9627 6b3b 4f52 62bd ba8c 313d c461 8f3b
000001f0: 0169 90bd c713 31bb 5a8c 12be 5c48 373d
-0.023918012 -0.051244777 -0.05492161 -0.0604785 0.1513289 -0.08177261 0.03291053 -0.026320228
0.036651865 -0.14782791 -0.06182979 -0.15522255 0.061334092 0.14375417 0.06277978 0.13735053
0.11101131 0.14194703 0.093427345 -0.011291439 0.11974206 0.028930001 0.10937583 0.042595107
-0.1263205 -0.07702273 -0.06558854 0.10985893 0.09793406 0.106077045 0.09346252 0.039059613
-0.04360964 0.15042162 0.150273 -0.015195629 -0.0978382 0.11998535 0.09779692 -0.14910913
0.021006566 0.0030239047 -0.12224934 -0.007356547 -0.060320403 -0.044769593 -0.015529369 0.06874454
0.035391625 0.040434208 -0.024847604 -0.048172817 0.14953068 -0.049628496 -0.031125885 -0.15559651
0.028609922 0.025795417 0.08307215 -0.079364866 0.13056338 0.090642236 -0.033503752 0.13088085
0.01749586 -0.087068066 -0.03830727 -0.096093014 -0.016330853 0.12521191 -0.023337722 -0.103190966
0.111501165 0.14846843 0.11745002 -0.13149823 0.098900184 0.08958824 0.09243735 -0.1023569
-0.044852827 0.14909062 0.112432204 0.15476175 -0.04054316 0.02318813 -0.019512858 -0.08942504
0.13219348 0.09300791 -0.06556181 0.1117586 -0.15433048 0.015692834 0.075906806 -0.023191253
0.034008466 0.061242398 0.14017197 0.05383467 -0.054571778 0.05373268 0.005496341 -0.0028150629
0.08863746 0.05085217 0.015369091 0.09104806 -0.011921202 -0.05600015 -0.053589262 0.10235511
-0.0069793155 0.11128084 -0.05479323 0.14945978 0.12718874 0.10939758 -0.06739188 -0.08484249
0.003588175 -0.055254277 0.043347098 0.0043756682 -0.07051278 -0.0027019845 -0.14311352 0.04474674

network.1.running_var f4 [128]
00000000: 4fb8 493e 7e38 463f 520d 783e e9a7 863e
00000010: e9d4 123f 548e 4c3e f32f ff3e 24bf b53e
00000020: 40ed 0e3f e8eb d73e eb1e 363e f8f4 af3e
00000030: 3002 613e 7991 f23e 1c0d 793e da24 8a3e
00000040: 14a4 4b3e 64f5 713e c123 ae3e 4d0c d83e
00000050: d530 ff3e 1485 0e3e ef98 8f3e 6733 9d3e
00000060: 798d 9f3e 5d8f 543e acb9 a43e 08b6 9f3e
00000070: a166 ca3e bfcc c73e db71 4d3e 762a c33e
00000080: 77e9 543e 67c3 003f 826a d83e b935 1a3e
00000090: 97bc a33e 9c4e 9e3e ea1e 8a3e 2329 043f
000000a0: 318a 903e d1ff 583e 7e4e a63e 6adc 743e
000000b0: 1a8c 823e 979b 573f 91d6 653e 1ebd 103f
000000c0: a3e1 703e afd8 853e 7175 8c3e 3b1f a23e
000000d0: 9198 8a3e 4578 d33e 060b 743e a151 d13e
000000e0: b441 f23e 976a 793e 4899 3d3e 8a1f bf3e
000000f0: c440 133e 9099 2d3f 1a35 1d3f 0784 993e
00000100: 0093 313f 6251 b43e 7019 5c3e a20f 193f
00000110: 9592 b63e c3db 163f 7fe9 9f3e 81f7 2e3f
00000120: 303c 2f3f 2f34 0d3f 86ea 873e 1eb0 4b3e
00000130: 904b 5f3e 679b c53e 7aae 3d3e 1e0c 9e3e
00000140: b3b1 f53e ab6a 483e 2b33 423e 2007 953e
00000150: c989 203e b2ac 123e 0dbc b13e 0a9c 763e
00000160: e09b a43e 116f d63e 8055 a83e 8288 923e
00000170: 3647 403e ed62 cd3e a009 2e3f a233 433e
00000180: d63f 873e d132 d43e a681 8a3e 35a7 813e
00000190: 5c6b 163f d5a8 953e ea29 983e f54c 533e
000001a0: 90c1 b23e a838 573e 4220 8e3e 1208 893e
000001b0: d883 843f cc7b 873e f53b 403e c01b 113f
000001c0: 5dc4 253e 5622 bd3e 7054 903e f97d 573e
000001d0: 5b49 283e ceff 4a3e 1acc fe3e a6c7 063f
000001e0: 241d cc3e 253a b63e c082 ef3e c62d f43e
000001f0: e513 353e 90ea b53e b5a4 293f 0f20 4a3e
0.19699214 0.7742995 0.24223831 0.2629998 0.57356125 0.19976169 0.4984127 0.3549739
0.55830765 0.4217217 0.17785232 0.34366584 0.2197349 0.47376612 0.24321407 0.2698124
0.1988681 0.23628765 0.34011653 0.42196885 0.49841943 0.13917953 0.28046367 0.3070328
0.31162623 0.20757814 0.32172906 0.31193566 0.39531425 0.39023396 0.20062964 0.38118333
0.20792185 0.5029816 0.4226876 0.15059556 0.3197982 0.3091935 0.2697671 0.5162527
0.28230432 0.21191336 0.3248176 0.23912206 0.25497514 0.84221786 0.22445132 0.5653857
0.23523574 0.2614188 0.2743335 0.31664452 0.27069524 0.41302696 0.2383233 0.4088259
0.47315753 0.24357067 0.18515503 0.3732875 0.14380175 0.6781244 0.6140915 0.2998354
0.6936493 0.3521834 0.21494079 0.5978948 0.35658708 0.5892908 0.3123283 0.6834641
0.68451214 0.5515775 0.26546115 0.19891402 0.21806169 0.38595125 0.18523589 0.3086862
0.47987136 0.1957194 0.18964832 0.29106998 0.15677561 0.1432369 0.34713784 0.24082962
0.32150173 0.41881612 0.3287773 0.28619772 0.18777165 0.40114537 0.67983437 0.19062665
0.2641589 0.4144502 0.2705204 0.2532288 0.5875757 0.2923037 0.29719478 0.20634826
0.349133 0.21017706 0.27758986 0.2676397 1.0352736 0.26461637 0.18772872 0.5668297
0.16188188 0.3694026 0.2818942 0.21044149 0.16434233 0.19824144 0.49765092 0.5264839
0.39865983 0.35591236 0.46779442 0.47691172 0.1768337 0.3553052 0.6626695 0.19738792

network.3.weight f4 [64, 128]
00000000: d97f c93d 0175 443d c6c7 84bc c3c1 4d3d
00000010: 880d 803d 43c7 3a3c 229f 1cbd 39c1 4b3d
00000020: 79ca 0bbc 1696 733d 9e14 81bb f600 9abb
00000030: 81cf 003b 9678 843d ebea 303d f4b3 41bd
00000040: 69d6 75bd 32da 5bbd 9f6a 273d 3e86 3f3d
00000050: c591 68bd e800 25ba 4dd1 523c 5bd4 c53c
00000060: 4976 0cb9 982c 763d 4d56 eebd 36e5 cf3d
00000070: d058 34bd bc14 733c dc6b 1bbd bcde e63c
00000080: 698a 93bb adb4 c93c be74 f43c 43a0 5ebd
00000090: 73ce b33d dafa b1bd d0ce 06bd 1c3f 77bd
000000a0: 9c2b b0bb 446f c4bd 42aa 9bbd 8607 493d
000000b0: 8804 a93d e597 1cbd e57d 9c3c 2404 843d
000000c0: 1620 953d f1fa db3c c65c 63bd 71d4 4bbd
000000d0: 2f45 adbc 69f7 8c3c 67a3 64bc e631 853d
000000e0: 02b3 79bc 42fd 37bd 2cf8 88bc bb21 5b3d
000000f0: 5fdf 37bd 4e35 6ebd a1d9 8a3b 4b22 d93d
00000100: 0bfb 15bd c463 03bc 5c03 2cbc 5e1e 043d
00000110: ce69 f93b 9150 3e3d c117 a1bd bc4a 8f3d
00000120: 7c20 04bd b632 283d 4237 a23d 2701 a6bc
00000130: 663c faba 9517 5abc e451 923d d512 27bc
00000140: 442a 8dbd b82d 9ebd 7eb5 e23c 2d4c afbd
00000150: 522a 8cbd 39a2 12bd 0c9b 06bd d716 493d
00000160: 18cd 3dbd 3601 8d3d 442f 89bd 20e4 1e3c
00000170: 0eea d23d 2842 ddbb af0e d43c 8a5c ca3c
00000180: 35c3 2c3c 9dc3 b73c 6d65 4e3d be95 b4bc
00000190: c91d 24bb 9d69 cdbd 7e74 e9bc 2ae1 c03d
000001a0: 914c 1f3d 49df fbbc 42f3 36bd e7fd 2abd
000001b0: c742 fd3c fdb5 fc3d a1a6 e7bd f1b3 3dbd
000001c0: a91c e63d 629c 223d 9deb 863c 9a5e 9bbc
000001d0: 1b2b 623c 8c0b 663d bade 3ebd 33ad 9bbb
000001e0: 82ef 68bc acf7 e4bd 83bc 5c3d eda2 813c
000001f0: 2dd6 773d 8beb 26bc 15cc 19bb 043e 5d3c
00000200: 10de 1f3d d671 4d3d 96ac 37bc 77fd 5bbd
00000210: 7a8b e6bb 0cbb 81bd aa50 ad3d cd55 f1bc
00000220: 5e72 413d 85ac c5bc 3d20 a63d 7bc3 253d
00000230: 20a2 38bd 82ca 3a3d cb94 923d 65aa 943d
00000240: 629e 19bd c8e9 033d 9180 aabd 6e2c 4bbc
00000250: d111 493a 0db0 913d 2c3b 9cbd f2c4 2b3d
00000260: fec8 9bbd def0 32bc 6556 0b3d aa55 913c
00000270: 5b1b 9f3d 71b1 b1bd ebfb 433d ac91 52bd
00000280: 3738 2e3d dad8 853d f63e 91bd c6b2 19bd
00000290: 488b 133c 397e cb3d 9422 0c3d 20c5 24bd
000002a0: 270f 4dbd 6090 7a3d 7dd7 973d b961 6038
000002b0: 3493 9ebc e0a3 34bd 6e09 103d 5da5 b4bc
000002c0: b7eb afbd 2a2e cc3c f77d d13b e50f f2bc
000002d0: cc74 383d d44d d2bc 431d 643d 3908 99bd
000002e0: 2562 a63d 1062 d93d 46bc 06bd e558 84bd
000002f0: 4ee3 9ebb 9a8c 523d 9b6a 653d 3f3b 85bd
00000300: 9e64 cc3c 46bf 163d 4b52 ebbc 7b56 723d
00000310: 6eee 72bb ff8c f4bc c4a6 9e3d 5c4c 7ebc
00000320: 2ae7 b1bc 9feb 9c3d 4bfc fbba 7187 a4bd
00000330: de88 09ba 9253 5fbc 00a6 4c3d 27f5 ae3d
00000340: 8a56 c53c ea82 4dbc 0db4 a93d 7d5a 553d
00000350: d1b0 2fbc 5527 fcbd 78c3 8dbd b874 143d
00000360: c8b2 9b3d 8c2e 953d ac1f 143c afe6 133c
00000370: f8a9 853d 69c5 773d a0a1 283c 7aa5 30bd
00000380: 76af 0c3c e307 f7bc 7759 3ebd bef1 703d
00000390: 4209 833c 7b2f 063c 2507 22bd c718 5b3d
000003a0: cdea 77bd a570 8a3b ccb1 103d 96d7 4ebd
000003b0: fd0c b3bb c9dd 91bb 5890 f1bd 701c cc39
000003c0: 4c77 b039 7bde bcbd da3b 1a3d a41f 703d
000003d0: 8340 863d 40ef 753d 7b3f 743d 6bc9 95bc
000003e0: dc41 da3c 4184 023b ec5d 3b3d 9608 053c
000003f0: 7796 d8bd 40bf 5fbc c1ce d4bc a596 883d
0.09838838 0.047963146 -0.01620854 0.050233614 0.06252581 0.011400047 -0.0382377 0.04974482
-0.00853216 0.059469305 -0.0039392253 -0.0046998216 0.0019654932 0.064683124 0.043192785 -0.047290757
-0.06001893 -0.053674884 0.040873166 0.046758883 -0.05677964 -0.00062943855 0.012867284 0.02414911
-0.00013395505 0.06010112 -0.11637554 0.101511404 -0.04403001 0.014836486 -0.03794466 0.02818238
-0.0045025838 0.024622286 0.029840823 -0.054352056 0.087796114 -0.08690424 -0.032912076 -0.06036292
-0.0053762924 -0.09591535 -0.076008335 0.04907944 0.082528174 -0.038230795 0.019103 0.06446102
0.072815105 0.026853057 -0.055508398 -0.049763147 -0.021151153 0.017207818 -0.013954974 0.06503658
-0.015240433 -0.04491926 -0.0167199 0.053498965 -0.044890758 -0.058156304 0.004237369 0.10602244
-0.036616366 -0.008019391 -0.010498848 0.032255523 0.00761149 0.046463553 -0.07865859 0.06996676
-0.032257542 0.041063987 0.07920696 -0.020264221 -0.0019091486 -0.013311286 0.07144526 -0.010197361
-0.06892827 -0.07723564 0.027674433 -0.08559451 -0.068440095 -0.03579924 -0.032862708 0.049094047
-0.04633817 0.068849966 -0.06698468 0.009697944 0.10298549 -0.006752271 0.025885908 0.02470233
0.010544588 0.022432143 0.050389696 -0.022044059 -0.0025042167 -0.1002991 -0.02849793 0.09417947
0.03889138 -0.03074612 -0.044665582 -0.041746046 0.030915631 0.12339399 -0.11311079 -0.046314184
0.11235935 0.03969992 0.016469771 -0.018966008 0.013804222 0.056163356 -0.046599127 -0.0047508716
-0.014217259 -0.11180052 0.053890716 0.01582476 0.06050699 -0.010187994 -0.002346759 0.013503555
0.039030135 0.05015739 -0.011210581 -0.05370852 -0.00703567 -0.063345045 0.08462651 -0.029459858
0.04722821 -0.024130115 0.08111618 0.040469628 -0.04507649 0.045603283 0.07157286 0.07259063
-0.03750456 0.032205373 -0.08325303 -0.01240073 0.00076701964 0.07113657 -0.07628474 0.04193587
-0.076066956 -0.010921685 0.03401794 0.017741043 0.077688895 -0.086764224 0.04784767 -0.051408455
0.04253408 0.06535502 -0.07092087 -0.037524007 0.009005375 0.099361844 0.034212664 -0.040227056
-0.05006328 0.061172843 0.07414148 5.3496773e-05 -0.019357301 -0.044101596 0.035165243 -0.022051508
-0.08589881 0.024924356 0.00639319 -0.029548595 0.04503326 -0.025671877 0.05569197 -0.074722715
0.08124188 0.10614407 -0.032894395 -0.06462268 -0.004848874 0.05140362 0.05600987 -0.06505441
0.024950322 0.036803506 -0.028725764 0.059164505 -0.0037068385 -0.029852388 0.07746652 -0.015521135
-0.021716673 0.07662129 -0.001922497 -0.08033646 -0.000524653 -0.013630765 0.049962997 0.08542853
0.024089117 -0.012543419 0.08286295 0.05208825 -0.010723309 -0.123121895 -0.06922048 0.036244124
0.07602459 0.07284269 0.009040754 0.009027167 0.065265596 0.060491 0.010292441 -0.04312656
0.008586755 -0.030155128 -0.04647204 0.058824293 0.015995625 0.008190031 -0.039557595 0.053490426
-0.060526658 0.004224854 0.03532581 -0.050498568 -0.005464195 -0.0044514877 -0.117951095 0.000389311
0.0003365822 -0.09222122 0.037654735 0.058623925 0.065552734 0.06004262 0.059630852 -0.01828452
0.026642732 0.0019915255 0.045743868 0.008119723 -0.10575574 -0.013656437 -0.025977494 0.06669358

network.3.bias f4 [64]
00000000: f623 133d 1786 81bc f940 9cbc 6876 25bc
00000010: 4f0d 03bd cd5e 973d 6a84 2f3b 1a39 c13c
00000020: 5bcb 9d3c 049d b3bd 3e30 97bd 5468 28bc
00000030: 083d 80bd 1a60 8bbd f493 b43c cb71 ee3c
00000040: be49 503d 345b 9d3d 2800 6f3d 24cf 9fbd
00000050: 224f 02bd 4553 f33a 526e 803d 6c83 0e3d
00000060: 6bf6 a6bd 200e 9bbd 9f2e cf3b 8da8 4f3d
00000070: 8416 943d c3eb 713c 546b a63d a016 a0bd
00000080: 2918 a03d 3e32 55bd 3ff0 e53c 429b 4fbd
00000090: 9db0 c1bc 475c 9abd ee16 fbbc cc76 403c
000000a0: bf63 bebc 9190 933d 074c 853d 2218 9a3d
000000b0: 84a4 a4bd b6fd 61bd cfc9 cdbc d9c4 78bd
000000c0: 5c53 c23c 448a 303d 1462 363d 2298 54bd
000000d0: 5022 b03d 705f b3bb d08f 72b9 8da5 34bd
000000e0: 5ce2 8b3c 7481 953b 6873 91bd 0935 be3c
000000f0: ae7b 9b3c 0137 2e3d dadc 033d b48f 4c3d
0.035922967 -0.01581101 -0.01907395 -0.010099031 -0.031995114 0.07391129 0.0026781806 0.023586798
0.019262007 -0.08770183 -0.07382248 -0.01027878 -0.06261641 -0.06805439 0.022043206 0.029106995
0.050851576 0.07683411 0.05834976 -0.07803181 -0.03181375 0.0018564245 0.06271042 0.034793302
-0.08152469 -0.075710535 0.0063226963 0.050697852 0.07230857 0.014765683 0.0812594 -0.078168154
0.07817108 -0.052049868 0.02806866 -0.050685175 -0.023643786 -0.07537132 -0.030650582 0.011747073
-0.023240922 0.07205308 0.06508642 0.07524134 -0.08039191 -0.0551736 -0.025120644 -0.060734604
0.02372139 0.04310061 0.04452713 -0.051902898 0.086002946 -0.0054740235 -0.00023132493 -0.044103194
0.01707571 0.004562551 -0.0710209 0.023218649 0.018979874 0.042532925 0.032193042 0.049941733

network.4.weight f4 [64]
00000000: 67f6 863f 9118 863f e21d 823f d690 833f
00000010: ff08 873f 720f 863f 6de3 843f ed26 863f
00000020: d51c 863f 3dd7 853f 870f 7d3f 34d6 823f
00000030: ca5e 863f 134c 853f da06 813f 321a 853f
00000040: 67b1 833f 4d45 833f d0f5 833f a300 843f
00000050: 4b5b 843f d9da 7b3f 2027 843f 4714 803f
00000060: 3e40 823f 204a 813f 04aa 833f 435d 853f
00000070: 7f6d 7f3f b934 823f c128 803f 1ea1 873f
00000080: 6278 763f 0691 853f 22c2 823f 7236 7c3f
00000090: 6d58 7a3f da6c 813f af26 833f 9017 803f
000000a0: 51c2 833f a5c3 823f 0b63 7a3f 3511 7e3f
000000b0: 75ed 863f b59a 853f e481 853f 017b 7d3f
000000c0: fdca 863f e31a 823f 3e7b 833f 9130 833f
000000d0: 5fc1 813f 6512 823f 7eeb 803f 130f 7d3f
000000e0: e279 853f 4abb 863f 4c20 833f 2622 853f
000000f0: c5ee 763f 4417 7d3f 7da1 833f 9d54 863f
1.0543946 1.0476247 1.016537 1.0278575 1.054962 1.0473464 1.0381905 1.0480629
1.0477549 1.045631 0.9885182 1.022162 1.0497677 1.0413841 1.0080216 1.0398619
1.0288514 1.0255524 1.0309391 1.0312694 1.034036 0.9838081 1.032444 1.0006188
1.0175855 1.0100746 1.028626 1.0419086 0.9977645 1.017234 1.0012437 1.0596044
0.9627744 1.0434883 1.0215495 0.98520577 0.9779118 1.0111344 1.024618 1.0007191
1.0293676 1.0215956 0.9780738 0.99245006 1.0541216 1.0437838 1.0430264 0.99015814
1.0530697 1.0164455 1.0271986 1.0249196 1.0137137 1.0161864 1.0071867 0.98851126
1.0427821 1.0525906 1.0244231 1.0401046 0.96458083 0.98863626 1.0283657 1.0494572

network.4.bias f4 [64]
00000000: 627d 103d b728 383d 27a5 4dbc 81a2 d1bc
00000010: b15e b4bb d5fb 373b 1687 c4bb 5256 0d3d
00000020: 4b4b 853c 8628 f4b9 e17e 14bd ce37 9bb8
00000030: 73dd c4bb 57fe 673d 04f6 b43c 4072 8b3c
00000040: 2425 053d 1ccf 383c f8df 393c e47d 923c
00000050: 01fc 133d 17ee 1bbc a000 38bc d26d d23b
00000060: 62f6 e13a c96c 00bc 1ec9 803c bc7e d43c
00000070: a7a3 d7bc f4b4 f9bc ce59 1abc 353e 653d
00000080: a664 06bd a843 183d ea14 e0bb 6764 28bd
00000090: 778b 2abc 5e2f 933b ec06 683c 12f8 1fbc
000000a0: bad6 8bbc 96fa d33c 55b6 86bb 49ba 97bc
000000b0: d13f e73c c511 b13c 33fe 163d de72 24bd
000000c0: 0390 6a3c 9e43 96bb a7ca 013c c19d cc3b
000000d0: 5ab2 abbc b3ec 44bc a841 98bb 5b6e 4c3b
000000e0: 387a df3c 372a aa3c 2aee e73c c137 8f3c
000000f0: a9d9 18bd 1a52 9abc b2f5 a93c 25ad d4bb
0.035275824 0.044960704 -0.012551582 -0.025590183 -0.005504452 0.0028073688 -0.005997549 0.03450615
0.016271254 -0.000465695 -0.036253814 -7.4013704e-05 -0.006007844 0.05663904 0.022089966 0.017022252
0.032506123 0.0112798475 0.011344902 0.017882295 0.036129 -0.009517214 -0.011230618 0.006421783
0.0017239565 -0.007838436 0.0157209 0.025939338 -0.026323153 -0.030481793 -0.009420825 0.05596753
-0.03281083 0.037173897 -0.0068384307 -0.041111376 -0.010409228 0.0044917306 0.014161807 -0.009763734
-0.017070163 0.025876325 -0.004111091 -0.018521445 0.028228672 0.021614918 0.036863517 -0.04014861
0.014316562 -0.0045856973 0.007921851 0.0062443917 -0.020959068 -0.012019324 -0.0046464987 0.0031193707
0.027279958 0.020772083 0.028311808 0.01748264 -0.037316952 -0.018837977 0.02074704 -0.006490367

network.4.running_mean f4 [64]
00000000: 9d13 2b3e ef13 a93e fba8 0a3e 60f3 0abe
00000010: 5469 4a3e dbca 1ebd 75ad 01be e7b4 72bd
00000020: df7d 2f3e 54cc 303d 4527 893d 67f3 a9be
00000030: 89c0 093e 0054 1db9 b4b4 67be f968 aebd
00000040: 656f 1abd 455b 403e 56e7 443d 4b28 61bd
00000050: a736 e0be 92a2 08bf d538 ba3e 8a1a 2b3d
00000060: 86ef 503d 4e3a 593e f5c0 83be 4266 6dbe
00000070: 4dfc 5b3d c817 093f 2c9a 313f fae9 be3d
00000080: 7099 283e d1e6 b3be 8d99 2d3e da75 12bf
00000090: 69be afbe f41a 483e 513a c13e 7e7a f53e
000000a0: 2009 123f 7309 ddbc ffdf 1f3f 8aac f03e
000000b0: 0474 f53e 54ab dcbd 6ea1 45bc 2f56 10be
000000c0: 787e 053e 68fe a9be 7943 03bc 2a77 1d3e
000000d0: 1e45 bbbc 789b e43d db6a 50bc fb0e ae3d
000000e0: 5073 61be 2e43 90be f46b b4bd db3a 7ebe
000000f0: 0b0c d53d 5aee 363e 801b 2cbe 4a3c 943e
0.167067 0.3302302 0.13541023 -0.13569403 0.19766742 -0.038767677 -0.12663825 -0.059254553
0.1713786 0.043163612 0.06696943 -0.33193514 0.13452353 -0.00015003979 -0.22627527 -0.08516116
-0.03770389 0.18784817 0.04807218 -0.054970067 -0.43791696 -0.5337306 0.36371484 0.041773356
0.051009677 0.21213648 -0.25733152 -0.2318354 0.05370741 0.5355191 0.6937587 0.09321971
0.16464782 -0.35137036 0.16953106 -0.5721108 -0.3432496 0.19541532 0.37739804 0.47945017
0.57045174 -0.026982045 0.62451166 0.47006637 0.47940075 -0.10774866 -0.012062414 -0.14095376
0.13036525 -0.3320191 -0.008011692 0.15377489 -0.022860106 0.11162466 -0.012720789 0.08498951
-0.22016644 -0.28176254 -0.08809653 -0.24827139 0.10402688 0.17864361 -0.16807365 0.28952247

network.4.running_var f4 [64]
00000000: a4e1 213e 0a55 213e 4c94 163e c79f f43d
00000010: 984d e93d 3503 333e 25ce aa3d da69 c73d
00000020: e3cf 033e f81b b23d 9b88 1e3e 2a76 013e
00000030: 995a cd3d 2081 de3d eea1 b83e cedc 123e
00000040: 76ba 753e e4b0 393e a59c f23d 781d 443e
00000050: 4394 e63d 85ab 003e c9d9 e93d 8d01 673d
00000060: 37aa 2e3e f6fb 693e 1919 e73d 89a7 c53d
00000070: 8e16 643e c989 1e3e 91cf 543e 9f1e ea3d
00000080: 2f0d 593e 6cf3 6c3e 5ff0 ae3d 9fdc 103e
00000090: 18bc 0d3e 6039 b83e a913 243e caa4 393e
000000a0: cb63 123e ed19 a53e 70c2 163e 1d0d d13d
000000b0: 58d7 233e 9b85 e43d d3f5 e03d 0dc4 dc3d
000000c0: c101 f83d b5f2 d23d 11d8 113e 5cc4 443e
000000d0: c49f 063e 4b86 e23d c8dd d23d eebb 023e
000000e0: 679f cd3d 09f5 033e f504 c33e ddee c53d
000000f0: a623 bf3d 8a6e 923d c1f6 373e 1b7d 1c3e
0.15808731 0.15755096 0.14705008 0.119445376 0.11391753 0.17481692 0.083401 0.097369865
0.12872271 0.08696741 0.15481798 0.12642732 0.10027046 0.108644724 0.36061043 0.14342043
0.2399691 0.18133885 0.11846284 0.19151866 0.112587474 0.1256543 0.11418492 0.056397963
0.1705712 0.22850022 0.11284084 0.096510954 0.22274229 0.15482248 0.20782305 0.11431622
0.21196435 0.23139733 0.08541941 0.1414666 0.13841283 0.35981274 0.16023125 0.18129268
0.1429588 0.32246342 0.1472261 0.10207579 0.16000116 0.11158296 0.10984387 0.10779581
0.121097095 0.10300199 0.14242579 0.1921553 0.13146883 0.110607706 0.10296208 0.12767002
0.10040169 0.12886442 0.3808972 0.096647 0.09332971 0.0714999 0.17965223 0.15282099

network.6.weight f4 [64, 64]
00000000: 366a 603d 37fc 9ebd ca37 cebc 5430 59bc
00000010: 5d9e edbd c6ed bd3d 4599 7e3d 922f 98bd
00000020: 0003 b0bd 3036 06be 191e 0d3d 4059 00bd
00000030: 4563 a13d 52cb b6bd 9ace a73d 41c7 c3bc
00000040: d29c afbd 4347 c4bd 2d54 04bc 0b7d a9bd
00000050: c2af afbd f8c9 45bd ed92 a73d 624e bbbb
00000060: a57b a73a bdcf aebc 2264 09bb a21f fa3d
00000070: 2374 383d aef4 43bc 1879 da3d 7588 0cba
00000080: 6449 1bbd abb2 683d 27e2 25bd 2f38 8fbb
00000090: 9dde a53d 777a 923d 0093 39bd 24e4 67bd
000000a0: 9aaa f4bc 1fc6 a63c 82af c73d ecd0 a53d
000000b0: 08ab da3d bf08 02be 3376 ccbc 8d9a 873d
000000c0: 0f80 c33d ef41 d3bd b7c5 5bbd 6dec 34bc
000000d0: 5f4e f3bd 32b4 bcbd a4b7 f23d 5e1d 92bd
000000e0: cab7 e93c a3a6 a73c 5a79 49bd d158 46bd
000000f0: c838 8c3c 5a2f 1dbd 462b 9ebd f3a5 883d
00000100: 09bc 92bc 70be 8dbd 5857 fa3d 11ed a8bd
00000110: 2bcd fd3d c075 353c 7017 713d 2255 67bc
00000120: 0687 613d 151b 2cbd f8c9 8cbd ff32 8ebc
00000130: 7749 8dbd 2e1b 9fbc 15ab f13d e28c 153e
00000140: 077d d03d b3bc 88bd c2c1 82bd c54c 3fbc
00000150: 4074 923d f39e 90bd 5682 fc3d 2e2d 5b3d
00000160: dce4 d73d fd98 9c3d 3af4 acbd fb85 85bc
00000170: 8cb9 dd3d f205 6c3d 66d6 ac3d 85a6 21bd
00000180: 75db bf3d d702 b53b dd4d 193e 09f3 43bd
00000190: 7f2e 9fbc 44e2 983d b1ab e43c c0bc 103e
000001a0: 1366 053e 7904 5d3d 24a5 dfbc 88af 113c
000001b0: 5d0d 33bd 79e0 eabc 56ac 713d d967 b7bb
000001c0: 68c6 293e 08dc 9fbd 87ec b2bd 11a3 ddbb
000001d0: 6474 39bd 1843 a83c 860f a8bd fb6d bcbc
000001e0: 4d96 123e febb acbd c8e9 c93d f317 c03d
000001f0: 2e78 05be b9df a6bc a662 cdbb 075b 79bd
00000200: 4ad9 e83c 72bf 6a3d d4be f7bc c833 2cbd
00000210: 6a49 18be c738 5d36 554c b6bc c13f d5bc
00000220: 0905 6ebd 1175 a33d cc71 ff3c 1a73 9abd
00000230: cc18 4dbd b138 723d e899 673d e965 b03d
00000240: 85e1 7f3d 6e96 0c3d bd8b f6bd 446d 32bd
00000250: 9fa9 92bc 51dc 84bd 6bd4 85bd b343 e73c
00000260: 77bf 333d 5ce3 8dbd f09f 0a3e b280 9a3d
00000270: 7a65 6e3d 939c 843d 7ad3 e8bd ff82 b73d
00000280: 592b 07bd 1c6b 06bd 9320 c5bc 00d1 983d
00000290: 06bb 8d3d 5291 223c 6afb 37bd 3c67 bdbc
000002a0: cbc5 9abd 9e95 c83d 55e7 3f3d 3e16 013e
000002b0: 0885 f33d 7ebf f339 9a79 9d3c a9e4 bdbd
000002c0: bc1b 6d3d 2cde a4bd b281 d8bd 3e27 65bb
000002d0: 91e0 c93d eeeb ffbc 21fd 453d 013f 8a3d
000002e0: 9638 45bd 8614 a4bd df74 9fbc e8a3 9cbd
000002f0: deda 7cbd 6081 bd3d 096f 29bd b07b ba3d
00000300: 764a af3c 7bdf 023c 4daf c5bd a09a 793b
00000310: d59d 36bd 979a aa3d 8767 f7bd 0751 1a3e
00000320: 58f4 6a3d 299c adbd 6a7b f93d 99f0 bcbd
00000330: 1219 02be a651 0f3e b981 593d 256f 15be
00000340: f590 b33d ba87 a1bd 3e0d 743d d9bc 443d
00000350: e292 873d 604c 2f3d c6f3 7c3d 32b3 aabd
00000360: 3b73 f43d 744c 183d 3a19 81bc 5be0 1abe
00000370: 7326 873b 9455 4b3c ba9e 543d 7df3 1b3e
00000380: 0831 8b3d d9ed 163c 464d afbb ad93 d23c
00000390: 095f 953d d268 13bd dbe1 e53d 2dbf 7d3c
000003a0: 3468 bdbd f3f3 4fbd 267e b13c d661 36bd
000003b0: fc94 c63d b3c1 b23d a925 06bd dda4 b63d
000003c0: 12ea 943d b7cd 933d 0f76 b83d 3a66 f5bd
000003d0: 6cc5 0c3d 48c9 40bd a9d7 0abe 52a9 4d3d
000003e0: 0407 ddbd 95ea cfbd 3cea 8c3d 0f6b fb3a
000003f0: 7b15 863d 248f 1a3d 1231 553d c3a1 cbbd
0.05478879 -0.0776295 -0.025173087 -0.013256151 -0.11602471 0.09273867 0.062157888 -0.07430948
-0.08594322 -0.13106608 0.03445253 -0.031335115 0.07880262 -0.08925499 0.08193703 -0.023898723
-0.08574833 -0.095839046 -0.00807671 -0.08275803 -0.08578445 -0.048288316 0.08182321 -0.005716131
0.0012777938 -0.021339292 -0.0020964225 0.12213065 0.04503263 -0.011960192 0.10667628 -0.000536091
-0.037911788 0.056811016 -0.04049888 -0.0043707113 0.08099101 0.071522646 -0.045306206 -0.056614056
-0.029866505 0.020358143 0.09750272 0.08096489 0.10677153 -0.12698649 -0.024958706 0.06621275
0.095459096 -0.1031531 -0.053655352 -0.011042696 -0.118801825 -0.09214057 0.11851433 -0.071345076
0.02853002 0.0204652 -0.049187995 -0.048424546 0.01711692 -0.038375236 -0.077230975 0.06672277
-0.017911928 -0.06921089 0.12223691 -0.08248342 0.12392648 0.011075437 0.058860242 -0.014119418
0.05506041 -0.042018015 -0.0687446 -0.017358301 -0.06898778 -0.01942214 0.118002094 0.14604524
0.10180097 -0.066766165 -0.063846126 -0.011676018 0.07151079 -0.07061567 0.12329547 0.053509884
0.10541698 0.07646368 -0.0844502 -0.016299238 0.10826406 0.057622857 0.08439331 -0.039465446
0.0936803 0.00552402 0.14971109 -0.0478392 -0.01943135 0.07465032 0.0279139 0.14134502
0.1302722 0.053959344 -0.027300425 0.008891948 -0.043713916 -0.02867149 0.059002243 -0.0055970964
0.16579592 -0.078056395 -0.0873652 -0.006763824 -0.045277014 0.020539805 -0.08206086 -0.023001662
0.14315148 -0.08434294 0.09859043 0.09379568 -0.13034126 -0.020370351 -0.0062678633 -0.060877826
0.028423924 0.057311483 -0.030242361 -0.04204157 -0.14871755 3.2964615e-06 -0.022253195 -0.026031377
-0.05811027 0.07981313 0.031182192 -0.07541485 -0.050072476 0.059136096 0.05654326 0.08613188
0.06247093 0.03432315 -0.12038372 -0.043561235 -0.017903147 -0.064873345 -0.06534656 0.028230524
0.043883767 -0.06928131 0.13537574 0.07544078 0.058202244 0.06475177 -0.11368461 0.089605324
-0.033000324 -0.03281699 -0.024063384 0.074617386 0.069204375 0.009922342 -0.0449175 -0.023120515
-0.07557257 0.09794162 0.046851475 0.12606141 0.11890608 0.00046491245 0.019223023 -0.09272129
0.057887778 -0.080501884 -0.105716124 -0.0034966017 0.09857286 -0.03124043 0.048337106 0.06750298
-0.048149668 -0.08011727 -0.019464908 -0.0764845 -0.061732166 0.09253192 -0.041365657 0.09105623
0.02139781 0.007987852 -0.096525766 0.0038086548 -0.044584114 0.08330267 -0.12080293 0.15069972
0.05736193 -0.08477051 0.121817425 -0.09225578 -0.12704876 0.1399599 0.05310223 -0.1459318
0.08767883 -0.07887216 0.05958294 0.04803166 0.066198125 0.042797446 0.061755918 -0.0833496
0.11936041 0.037182286 -0.0157591 -0.15124647 0.0041244566 0.01241054 0.051909186 0.15229602
0.06796461 0.009211981 -0.005349788 0.025705183 0.07293517 -0.035988636 0.11224719 0.015487474
-0.09248391 -0.050769757 0.021666598 -0.044526897 0.09696385 0.087283514 -0.03275076 0.08918164
0.07271208 0.07216971 0.09006893 -0.11982389 0.034367964 -0.047066957 -0.1355883 0.050210305
-0.10792354 -0.10152165 0.06880614 0.0019181686 0.06547066 0.037734166 0.05204875 -0.09942963

network.6.bias f4 [64]
00000000: 6a7e 20bd 2041 143d 19b5 0f3e 7d0a d8bc
00000010: b7de 85bc 2522 07bd 0d61 513d bacd b93a
00000020: 6fff ad3d 268d c03d 6f31 4b3d c4ca eabd
00000030: 94a0 bb3d 5a2e cabc 0901 0fbc f626 4f3d
00000040: 5986 db3d f61f 60bc 4d12 eb3d d53b 383d
00000050: 23d9 363d b504 4f3c 447a 053e 6c7b b03d
00000060: c027 ce3d 5ac0 8b39 8d33 4f3d f129 d4bd
00000070: 9da2 943d 1f73 0c3d 43c5 6cbd f4bf 4dbd
00000080: e50f 313b a846 273d 33d3 2b3d 9668 013d
00000090: 86ff b43d 2cf3 fc3d 97a3 ee3d 1f1b c53d
000000a0: d8ac b0bc ed67 2fbc 0f2a 80bc a8cc 1a3b
000000b0: 3465 67bd ead7 453c f989 dc3b 711f 893d
000000c0: d899 7bbd f95e ee3c 997e bc3d 29c2 5c3d
000000d0: aa9d 07be 5dfa c43d 714b ed3d 41c5 853d
000000e0: 6861 2d3c 9c0a 003e f0ce 73bd 1947 11be
000000f0: fb19 563d 6c1c 113d 6443 013b 2453 13bd
-0.039183058 0.03619492 0.14033927 -0.026372189 -0.01634155 -0.032991547 0.051117945 0.0014175691
0.08495986 0.09401922 0.04960769 -0.11464456 0.09161487 -0.024680305 -0.008728274 0.050574265
0.10718984 -0.013679495 0.114781 0.044978935 0.04464067 0.0126354 0.13034922 0.08617291
0.100661755 0.0002665546 0.050586272 -0.10359562 0.072575785 0.034289476 -0.05780531 -0.05023189
0.002701753 0.040838867 0.041949462 0.03159388 0.088378 0.12351069 0.11652296 0.096243136
-0.021566793 -0.01070593 -0.015645055 0.002362052 -0.056493 0.012075404 0.006730315 0.0669545
-0.061426014 0.02909802 0.09203834 0.053896103 -0.13243738 0.096180655 0.11586655 0.06531764
0.0105823055 0.12504047 -0.059523523 -0.14187278 0.05227087 0.035427496 0.0019724006 -0.03596796

network.9.weight f4 [32, 64]
00000000: e54a 28bc 6811 87bd fe9e 74bd 40e4 e43d
00000010: 1458 3a3b 34ac 133d 519b 54bd 93bc 94bd
00000020: 05df a23d 5902 09be c20d 4cbd b48f d5bd
00000030: 88dd bbbd 1679 483d b735 b43d cfc9 b0bc
00000040: a7f8 763d 8819 c3bd a3ad 6d3c cc64 f2bd
00000050: fe81 2bbc 3cdc 313d 7aca 703b e8d9 453d
00000060: fa38 a83d 601a c63c 18e7 a2bd 003d aabd
00000070: 0ac3 163d 514f 523c c166 adbc c16c 06bd
00000080: a3c3 4bbd d143 adbc ad77 13be 1fe5 f43d
00000090: 9d76 b8bd 9e25 f43d 7f0e 443d 9fa7 89bc
000000a0: a91c 9a3b bb9f 2cbd 3b9c b1bb b7eb e9bc
000000b0: 0ebe 7a3d f3fb 163e 0d6a 9cbc 3634 123d
000000c0: fa86 9bbc 4ab4 e43d 786b 0bbe f384 ffbd
000000d0: 4dca 4bbd f4de 0f3d e641 c8bd 0cc1 863d
000000e0: 928b 5b3d d99d c2bd 544f dcbd 1ce5 00be
000000f0: 1804 f33b d25b a73d 9939 ff3c b397 25bd
00000100: 4e23 783d 25e7 7dbd ce97 cabb af92 a13d
00000110: aae6 19bd 5526 613d 0eb0 32bd b18b 0abe
00000120: 6917 2cbd 4eb4 3cbd e946 97bc d28e 383c
00000130: 38b5 d8bc 69ec 9b3d 5e09 3f3d 8a58 24bd
00000140: 106d 5ebd 93bf fe3c 75d3 85bd 3f48 9cbc
00000150: 5cb3 8d3d ff7b 28bd 2ab2 b23c 91ec 4c3d
00000160: 5f76 263d 8b33 713c 018d 723d f454 6bbd
00000170: 65ad de3c 7467 843d 3f89 053d ef39 113e
00000180: ae42 3e3d 4f30 92bd 8bd7 a0bd d961 ff3d
00000190: a398 a2bd 8376 58bc 07a5 8abd 258c ca3d
000001a0: 4cbb 91bd 83a2 7db8 96e1 993d b11d 02be
000001b0: 614e ae3d 1fe8 183e ae1a b5bd 8039 84bd
000001c0: e5c5 d0bd 58ad 113e 17a1 e33b b929 953c
000001d0: f695 6c3d 97fd aebd d54e 873d 1dc7 abbd
000001e0: f7af a2bb 2806 433b 3531 a0bd 0013 033c
000001f0: 930d acbc 57cc d4bc 46c8 a73b 6dcf c1bd
00000200: 47da 61bc 7f4c 093e 32b9 153c 30d2 0bbe
00000210: c93a 8ebd 48ab d43d 5b9f fb3b c69e 71bd
00000220: 0f88 a83c 30e5 bc3d 6f54 0f3e 25bc f13d
00000230: ec08 df3d 0c18 b1bd 0ff6 aa3c 266c 47bd
00000240: ea0e 88bd ec15 063e 357a 9fbc fdc7 783d
00000250: 7a72 74ba 30a0 da3c 3eb8 88bc b05a 123e
00000260: 6fb0 743c 14e4 0f3e 976d c4bd a6e8 aebd
00000270: 274f 9fbd 2f67 ca3d 6d4d d3bb 20d3 45bd
00000280: 8873 a6bd 33d5 a8bc caf7 ec3d 759d d2bd
00000290: 9c9c 183e 1eda 34bd 023a 393d 594e 23bc
000002a0: 0cdd a33d db8c 253e 7835 a53d 731a 14bb
000002b0: 0f3b e63c 2c8f df3b 537b 193e b990 68bd
000002c0: 9192 4b3d 9b16 32bd e67e fbbc 3094 153e
000002d0: e9ff 0fbd b955 ab3d 2a2e 453d fac5 043d
000002e0: 28db e3bb b2f6 c93c 0bc9 a43c 9fa3 563d
000002f0: 9177 8a3d 1301 18bd d275 c43d a4f4 f03d
00000300: 5361 8abd 0483 5f3c dff0 99bc 4b67 bc3d
00000310: cf94 28bd 31e1 efbd 1847 f7bd 86e5 e6bd
00000320: 6432 a0bd 5d51 4a3d 13fe d4bd 5592 043d
00000330: 5400 9b3b e673 603d c592 0f3e 3e99 fb3b
00000340: c7aa 2bbd 105d 3b3c cb6a 533c be97 713d
00000350: f63e 253c 04a4 72bd 89de a2bd 2ad3 5c3d
00000360: 551e 6ebd 4e05 4bbd d3ab cdbd 7277 09be
00000370: 60b0 efbd cee9 b03d b6fe 6c3c e4b0 bbbc
00000380: c12c adbd 5c54 b1bd a988 aabd 846c bfbd
00000390: fe8b 65bc 9e9d 1d3d 3c34 cdbb a96c 813d
000003a0: 42a0 71bd 5e3e 883d 8f0b a83d fb9f 5e3d
000003b0: dc15 c7bd 1f4f babd 4a4f 2fbd 5acd a4bd
000003c0: 7abc 21bd 4f3c 33bc 47f7 81bd e028 4abd
000003d0: dac2 a1bd ede3 9dbd a433 4c3d 7e8d 0f3d
000003e0: 02c9 8a39 4294 80bd 7652 a0bc f566 8fbd
000003f0: 3b41 ad3d 12b5 b7bd de71 f8bd 4a17 93bd
-0.0102717625 -0.06595117 -0.05972194 0.11176348 0.0028433846 0.036052898 -0.051905934 -0.0726253
0.07952694 -0.13379802 -0.049817808 -0.104278 -0.09173113 0.0489436 0.08799308 -0.021580605
0.060295727 -0.09526354 0.01450673 -0.11835632 -0.010468004 0.043422922 0.003674178 0.048303515
0.082139924 0.024182498 -0.07954234 -0.08312416 0.036807097 0.012836293 -0.021167161 -0.03281856
-0.04974712 -0.021150501 -0.14401121 0.11957764 -0.09006999 0.119212374 0.047865387 -0.01680356
0.0047031236 -0.04214452 -0.0054202355 -0.02855478 0.061216407 0.14744548 -0.019093538 0.035694323
-0.01898526 0.111672 -0.13615215 -0.1247653 -0.049753476 0.035124734 -0.09778194 0.065797895
0.0535999 -0.09502763 -0.10757318 -0.12587398 0.0074162595 0.0817181 0.031155394 -0.040427875
0.060580544 -0.061988015 -0.0061826473 0.07889306 -0.037573494 0.054968197 -0.04362493 -0.1352985
-0.042014513 -0.04607039 -0.01846643 0.01126452 -0.0264536 0.07613451 0.046639793 -0.0401235
-0.05430323 0.03109721 -0.06534473 -0.019077418 0.06918976 -0.041133877 0.02181347 0.050030295
0.04064023 0.014721761 0.059216503 -0.057454064 0.02718229 0.064650446 0.03260159 0.14182256
0.04645031 -0.071381204 -0.078536116 0.12469835 -0.079392694 -0.013211849 -0.06769758 0.09890012
-0.07115802 -6.047125e-05 0.0751373 -0.12706639 0.08511043 0.14932297 -0.08842979 -0.0645628
-0.101939954 0.14226282 0.0069466936 0.018208371 0.0577602 -0.08544462 0.06606833 -0.08387587
-0.0049648243 0.0029758308 -0.078218855 0.008000135 -0.021002566 -0.025976343 0.00512031 -0.094633915
-0.0137849515 0.13408087 0.009138392 -0.13654399 -0.06944806 0.10384232 0.0076789088 -0.05898931
0.02057269 0.092234015 0.13997053 0.11803464 0.108903736 -0.08647165 0.020869283 -0.048687123
-0.0664347 0.130943 -0.019467453 0.0607376 -0.00093249197 0.026687711 -0.016689416 0.14292407
0.014934643 0.14051849 -0.09591215 -0.08540468 -0.07778769 0.09882962 -0.006448439 -0.048297048
-0.081275046 -0.020609474 0.115706995 -0.10283939 0.14903492 -0.044153325 0.045221336 -0.00996741
0.08001146 0.16167013 0.08066839 -0.0022598773 0.028104333 0.0068224873 0.1498845 -0.056778643
0.049700323 -0.04347859 -0.030700158 0.1460731 -0.035156164 0.0836596 0.04813973 0.032415368
-0.0069536157 0.024653766 0.020115396 0.052402135 0.06761087 -0.0371104 0.09592785 0.117654115
-0.06756844 0.013642076 -0.018791614 0.09199389 -0.04115754 -0.11712874 -0.12074107 -0.11274247
-0.07822111 0.049394 -0.10400023 0.032366116 0.0047302637 0.05479803 0.14020832 0.00767818
-0.041910913 0.011435762 0.012903879 0.058982603 0.010085812 -0.05923845 -0.079526015 0.05391232
-0.058134396 -0.049565606 -0.100425385 -0.13424471 -0.11703563 0.08638345 0.014465025 -0.022911496
-0.08455802 -0.086586684 -0.08326847 -0.093468696 -0.0140104275 0.038480394 -0.0062623303 0.063195534
-0.058990724 0.066525206 0.082053296 0.054351788 -0.09720966 -0.090971224 -0.042800225 -0.0804698
-0.039486386 -0.010939672 -0.063459925 -0.049355388 -0.07898493 -0.07709489 0.049853936 0.035047047
0.00026471174 -0.06278278 -0.01957057 -0.07002059 0.08459707 -0.08970083 -0.121310934 -0.071821764
