models/PyTorch_state_dict.pth (torch, 100578 bytes, 17 tensors)

network.0.weight f4 [128, 62]
0	0xbe1a19c6	-0.15048894
1	0x3d81ba9b	0.0633442
2	0xbd569f41	-0.05239797
3	0x3df69a77	0.120411806
4	0x3c07c787	0.008287317
5	0x3d9a858c	0.07545003
6	0x3d9e8989	0.077410765
7	0x3d470462	0.048588164
8	0xbd65de13	-0.05611999
9	0xbcf6f6dd	-0.03014701
10	0xbdad51ab	-0.084628426
11	0x3da63a48	0.08116585
12	0xbcc3adfa	-0.02388667
13	0x3d2871cb	0.041124146
14	0xbd8c4619	-0.068493076
15	0x3c9f0fa7	0.019416643
16	0xbafb0ec1	-0.0019154177
17	0x3d4fe1e0	0.05075252
18	0x3dbf82f9	0.09351153
19	0x3d1777d2	0.036979504
20	0xbdd30415	-0.10303513
21	0xbe0b4abc	-0.13602728
22	0x3b93b3e4	0.0045075286
23	0xbc40ae82	-0.011760356
24	0x3d056c82	0.032574184
25	0xbcf9d15a	-0.030495334
26	0xbe0cd964	-0.13754803
27	0x3ca377b0	0.019954532
28	0xbd87ffa4	-0.066405565
29	0xbd907279	-0.07053084
30	0xbd1a853c	-0.03772472
31	0x3d523a54	0.051325157
32	0xbde57144	-0.11203244
33	0xbd0f3cc2	-0.034970053
34	0xbcc79ff7	-0.02436827
35	0x3daec9ed	0.08534608
36	0x3d8c87f6	0.0686187
37	0x3c81b5cf	0.015833763
38	0xbb761abe	-0.003755256
39	0x3dcdc995	0.10048214
40	0x3d3683c4	0.044559255
41	0xbd273951	-0.040826146
42	0xbdc07e3a	-0.09399076
43	0x3db27f6a	0.087157086
44	0xbdcbd488	-0.099526465
45	0x38c6922b	9.468602e-05
46	0xbdd96601	-0.10615159
47	0x3e002e7b	0.12517731
48	0xbdae004d	-0.08496151
49	0xbd011b5f	-0.031520244
50	0xbd6a8484	-0.057255283
51	0xbd79ee98	-0.061018556
52	0xbd330684	-0.043707386
53	0xbdbcde0f	-0.09222042
54	0xbdc95c77	-0.098320894
55	0xbd9d4c73	-0.07680597
56	0x3d6c485e	0.057686202
57	0xbd4d5854	-0.050133064
58	0x3d5475d0	0.051870167
59	0xbad3fa03	-0.0016172532
60	0xbde96bf5	-0.11397544
61	0xbdbc01a0	-0.091799974
62	0x3d9b56a2	0.07584883
63	0x3d7953e8	0.060871035
64	0xbdc5be51	-0.096554406
65	0x3da54ed8	0.08071679
66	0x3defbe2b	0.117061935
67	0xbd9c3594	-0.07627407
68	0x3d6e3e8d	0.05816512
69	0xbd27f6ff	-0.04100704
70	0x3d247a13	0.04015548
71	0xbe08a287	-0.1334325
72	0x3de8918e	0.11355887
73	0xbd76d3cf	-0.06026059
74	0xbc3334cf	-0.0109378835
75	0xbdfb2655	-0.12263171
76	0x3cc5f034	0.02416239
77	0xbd6bda6d	-0.057581354
78	0xbbc3a38e	-0.005970425
79	0x3e034028	0.12817442
80	0x3de0075e	0.10938905
81	0xbe07f839	-0.13278283
82	0xbdcc20b5	-0.09967176
83	0xbcb67216	-0.022271197
84	0xbe156e60	-0.14592886
85	0xbdd53918	-0.104112804
86	0xbd5bcc47	-0.05366161
87	0xbe045422	-0.12922719
88	0x3d78aef4	0.060713723
89	0x3dbb65d5	0.09150282
90	0x3daf98a7	0.08574038
91	0x3a96f7d7	0.0011517954
92	0xbdeaf531	-0.11472548
93	0x3bb8eeae	0.005643687
94	0xbc5c8ba8	-0.013461031
95	0xbdac9974	-0.08427706
96	0xbd95b49e	-0.073098406
97	0xbdb02c19	-0.08602161
98	0xbd28e3eb	-0.041232985
99	0x3dcaffda	0.09912081
100	0xbdbf30c1	-0.09335471
101	0xbcefab6e	-0.029256549
102	0xbddd093c	-0.10792777
103	0xbd754ddb	-0.059888702
104	0x3db633e2	0.088966146
105	0xbd36f5e4	-0.044668093
106	0xbd929aa7	-0.07158404
107	0x3df4a456	0.11945407
108	0x3dade211	0.08490384
109	0x3db15721	0.08659197
110	0x3d5934fd	0.05302905
111	0xbce80249	-0.028321402
112	0xbd90a56e	-0.07062803
113	0xbe0bdd9a	-0.13658753
114	0x3bafc52a	0.00536408
115	0xbdcd177d	-0.10014246
116	0xbd8c0375	-0.06836597
117	0x3dba4268	0.09094697
118	0xbd351512	-0.044209547
119	0x3b8fffab	0.0043944917
120	0xbd21da42	-0.039514787
121	0xbc169601	-0.009191037
122	0x3d91908e	0.0710765
123	0xbd70340e	-0.058643393
124	0xbdfab3dc	-0.12241337
125	0xbcd720dd	-0.026260788
126	0x3d887984	0.06663802
127	0xbdc049fe	-0.09389113
128	0x3dd7e0c3	0.10540917
129	0xbd95c8da	-0.073137
130	0xbe03520c	-0.12824267
131	0xbc81e7ec	-0.01585766
132	0x3d20868e	0.03919082
133	0x3cd457cc	0.025920771
134	0x3d79f6ec	0.0610265
135	0xbd0250f2	-0.031815477
136	0xbd3bb6a4	-0.045828477
137	0xbdcdab15	-0.10042397
138	0xbd8853ae	-0.06656586
139	0xbc922fa5	-0.017844984
140	0x3dc719f6	0.097217485
141	0x3db95a41	0.09050418
142	0x3d4fe161	0.050752047
143	0x3d96e195	0.07367245
144	0xbe03a223	-0.12854819
145	0x3d74c125	0.05975451
146	0x3d9e0129	0.07715065
147	0xbdbc0b97	-0.09181898
148	0xbdc4eacf	-0.09615099
149	0xbdd894a2	-0.105752245
150	0xbd02426c	-0.031801626
151	0x3cc761a7	0.024338556
152	0x3da63ca8	0.08117038
153	0x3da9d037	0.08291667
154	0x3e0c9ec6	0.13732442
155	0xbdbb6e36	-0.091518804
156	0xbd3ca6e2	-0.04605759
157	0xbd9f1cca	-0.07769163
158	0x3c19dadc	0.009390559
159	0x3dcdbe3a	0.100460485
160	0xbdc8eecf	-0.09811174
161	0xbd30a7c8	-0.04312876
162	0xbcc7e8df	-0.024403034
163	0x3d7d7b7d	0.061885346
164	0x3d1f9e02	0.038969047
165	0x3d58e910	0.05295664
166	0x3d1594f0	0.03651899
167	0x3cea276a	0.028583247
168	0xbd92b691	-0.07163728
169	0xbd95af83	-0.07308867
170	0x3d15589d	0.03646146
171	0xbdaf233e	-0.08551644
172	0x3d9ec3e0	0.07752204
173	0x3dfc0ef4	0.123075396
174	0x3d73f03d	0.05955528
175	0x3d9807d3	0.07423367
176	0x3dc048c6	0.093888804
177	0x3dc76209	0.097354956
178	0xbd2df021	-0.042465333
179	0xbd3870b1	-0.045029346
180	0x3db9ce90	0.09072602
181	0xbd3b256b	-0.04568998
182	0x3d393942	0.04522062
183	0x3dec48db	0.115373336
184	0x3dcaa871	0.09895409
185	0x3d827104	0.06369212
186	0x3c1bc9e0	0.00950858
187	0x3dca2d7b	0.09871956
188	0x3b1cd058	0.0023927893
189	0x3d157c54	0.03649552
190	0x3d252db0	0.040326774
191	0xbd1f52e3	-0.038897406
192	0x3c097ee1	0.008392067
193	0x3dd16080	0.10223484
194	0xbdf7e824	-0.12104824
195	0xbd37f514	-0.04491146
196	0xbc974633	-0.01846609
197	0x3def7a9b	0.11693307
198	0xbd77c600	-0.060491562
199	0x3df101b9	0.11767907
200	0x3d4b1aa8	0.04958597
201	0x3d8d08c8	0.068864405
202	0x3e070d2b	0.13188617
203	0xba44bb16	-0.00075046846
204	0xbd7d99ae	-0.06191414
205	0xbdbef89b	-0.093247615
206	0xbdc16ec5	-0.09444956
207	0xbe06d40e	-0.1316683
208	0xbcc6f911	-0.024288686
209	0x3d139921	0.036034707
210	0xbdaf46f3	-0.08558454
211	0x3dafecf8	0.0859012
212	0x3dc35824	0.09538296
213	0x3d31e73c	0.043433413
214	0xbcfb8e8c	-0.03070762
215	0x3d97a860	0.07405162
216	0xbde17fd4	-0.110107094
217	0xbdcff962	-0.10154988
218	0xbd548960	-0.051888824
219	0xbdc6e337	-0.097113065
220	0xbdda0512	-0.10645498
221	0x3d3019de	0.04299342
222	0x3c4dfb8a	0.012572179
223	0xbd09e3dd	-0.033664573
224	0xbd978218	-0.0739786
225	0xbcddf915	-0.02709631
226	0xbddf9e26	-0.10918836
227	0xbd841ba7	-0.06450587
228	0x3dabd39e	0.08389972
229	0x3d935a44	0.07194951
230	0x3dd4e82e	0.10395847
231	0xbd278f28	-0.04090801
232	0xbdb1dc5b	-0.086846076
233	0x3dcff89f	0.101548426
234	0x3d419327	0.047259476
235	0xbdf410c5	-0.11917261
236	0x3dd0ee13	0.10201659
237	0x3d03aa57	0.03214487
238	0x3e0ff159	0.1405691
239	0xbd18b748	-0.037284166
240	0x3d38f562	0.04515589
241	0x3ddedc99	0.108819194
242	0x3db26ef7	0.08712571
243	0xbdd177a4	-0.10227898
244	0x3dda1c2d	0.10649905
245	0x3defba41	0.11705447
246	0x3d3a64bc	0.045506224
247	0xbdaf5752	-0.08561577
248	0x3d18327f	0.03715753
249	0x3d2aa00b	0.041656535
250	0xbd35df4a	-0.0444024
251	0x3d947ca9	0.072503395
252	0x3e1699e1	0.14707138
253	0xbc109868	-0.008825399
254	0x3dff9463	0.124794744
255	0xbc3e6034	-0.011619616

network.0.bias f4 [128]
0	0xbde00c30	-0.109398246
1	0x3d9bac01	0.076011665
2	0xbd133e91	-0.03594834
3	0x3d2a1aaf	0.041529354
4	0xbdddd0d9	-0.1083085
5	0xbd85941b	-0.065223895
6	0xbd59f61f	-0.053213235
7	0x3ca742df	0.020417629
8	0x3d5a60c6	0.053314947
9	0x3de388b6	0.1111006
10	0x3db5464a	0.08851297
11	0xbd34a533	-0.04410286
12	0xbdd982df	-0.10620665
13	0x3d92fce8	0.07177144
14	0x3ddaf669	0.1069153
15	0x3d9abfda	0.07556124
16	0x3e005568	0.1253258
17	0x3db5942e	0.08866154
18	0xbd586875	-0.052833993
19	0xbdcb4dab	-0.09926923
20	0xbdc98b1d	-0.09840987
21	0x3bc7f39a	0.0061020376
22	0x3c3051ff	0.010761737
23	0xbda3ac32	-0.07991828
24	0xbde388fa	-0.111101106
25	0xbd76680a	-0.060157813
26	0x3c0be1eb	0.00853775
27	0xbde5911c	-0.11209318
28	0xbdb38820	-0.08766198
29	0xbd948a50	-0.072529435
30	0xbcb856cd	-0.022502327
31	0xbda5e12b	-0.08099588
32	0x3df87d1f	0.1213324
33	0x3db1e7d3	0.08686795
34	0xbc4137aa	-0.0117930565
35	0xbd7e1b78	-0.062037915
36	0x3de2fe3b	0.11083647
37	0x3d99fe69	0.07519228
38	0xbc9dab1b	-0.019246629
39	0xbbf9434e	-0.0076069003
40	0xbdca8bfd	-0.09889982
41	0x3d415895	0.04720362
42	0xbdb920a4	-0.09039429
43	0x3de00580	0.10938549
44	0x3de06234	0.10956231
45	0xbdf30f93	-0.11868205
46	0x3dfe4eb0	0.12417352
47	0x3dc1b638	0.094585836
48	0xbdfa447e	-0.12220095
49	0xbdc44d08	-0.09585005
50	0x3dcc6708	0.09980589
51	0xbc4408c6	-0.011964982
52	0xbdb9bb19	-0.09068889
53	0xbd7e6d2f	-0.062115844
54	0xbdd71ec3	-0.10503914
55	0x3ce4d31d	0.027932698
56	0x3dd31bcf	0.103080384
57	0x3d533683	0.05156566
58	0xbd8a2d2f	-0.06746899
59	0x3cefc94f	0.029270796
60	0x3d95bb46	0.0731111
61	0xbd881b8c	-0.06645879
62	0x3dacadbe	0.08431576
63	0x3c4d190f	0.012518181
64	0x3df14cbc	0.11782214
65	0x3c6516f4	0.013982523
66	0xbde6a773	-0.11262407
67	0xbd47aaa5	-0.048746724
68	0x3df2074d	0.11817799
69	0xbd8557a5	-0.065108575
70	0xbd1199c6	-0.03554704
71	0x3d1caf11	0.038252894
72	0x3dacd956	0.08439891
73	0xbd97cd12	-0.07412161
74	0x3dd310ca	0.10305937
75	0xbdd3866d	-0.10328374
76	0xbddfa477	-0.10920041
77	0xbd45c5b8	-0.048284262
78	0x3cb20b91	0.02173403
79	0x3d2e6e2a	0.04258553
80	0x3dffa763	0.12483098
81	0xbd929126	-0.07156591
82	0xbd15d1ac	-0.03657691
83	0xbdb8674d	-0.09004078
84	0x3de13558	0.10996503
85	0xbccb389d	-0.024807269
86	0x3dd7ec41	0.10543109
87	0xbd0b455a	-0.034001686
88	0xbdafa316	-0.08576028
89	0x3daa4e21	0.08315683
90	0x3d0f19eb	0.034936827
91	0x3d0e9b2e	0.03481596
92	0xbc05db5a	-0.008169973
93	0xbcda0c50	-0.0266172
94	0xbc8b0213	-0.016968763
95	0x3d3611c7	0.044450548
96	0xbda76dff	-0.08175277
97	0xbe000f77	-0.125059
98	0xbd82f76b	-0.063948475
99	0x3c179877	0.009252659
100	0xbc7d1e1d	-0.015449074
101	0xbdd90ab1	-0.10597742
102	0xbd7a60c2	-0.06112743
103	0xbdc14f41	-0.094389446
104	0x3c983b2f	0.018582908
105	0xbda36bd6	-0.079795524
106	0xbdab622d	-0.08368335
107	0xbdbfccfa	-0.09365268
108	0xbde55a9a	-0.111989215
109	0xbd06b055	-0.032883007
110	0x3df96d9b	0.12179109
111	0x3d844dde	0.064601645
112	0xbde4bd59	-0.11168928
113	0x3c8e07e7	0.017337753
114	0x3da3fb97	0.08006971
115	0x3cd57133	0.026054954
116	0x3ca7a8cf	0.020466236
117	0x3d5eb9d8	0.054376453
118	0x3d257176	0.040391408
119	0x3cec0bfd	0.02881431
120	0x3dc8c049	0.098023005
121	0xbdf90d72	-0.121607676
122	0x3d9d4cf4	0.07680693
123	0xbafafc14	-0.0019148611
124	0x3dbc40ea	0.09192069
125	0xbd1da7a8	-0.038489968
126	0x3dabdecf	0.08392107
127	0xbdcc34a3	-0.09970977

network.1.weight f4 [128]
0	0x3f78bbc9	0.9716154
1	0x3f80b720	1.0055885
2	0x3f843ab7	1.0330418
3	0x3f7affae	0.98046386
4	0x3f83ba54	1.0291238
5	0x3f7ddef7	0.9916834
6	0x3f7a698f	0.9781732
7	0x3f7b05b5	0.98055583
8	0x3f82d7f5	1.0222155
9	0x3f7dd781	0.9915696
10	0x3f79eb2c	0.9762447
11	0x3f791318	0.9729476
12	0x3f80bf20	1.0058327
13	0x3f7e1be2	0.99261296
14	0x3f7b0608	0.9805608
15	0x3f7ad6be	0.9798392
16	0x3f8305f8	1.0236197
17	0x3f7c9be6	0.9867538
18	0x3f82ae83	1.0209507
19	0x3f78d7a4	0.9720404
20	0x3f83c2ca	1.029382
21	0x3f807da6	1.0038345
22	0x3f847b41	1.0350114
23	0x3f800618	1.000186
24	0x3f80307b	1.0014795
25	0x3f7bf91c	0.98426986
26	0x3f803479	1.0016013
27	0x3f77e344	0.96831155
28	0x3f7c5f02	0.9858247
29	0x3f793859	0.97351605
30	0x3f7f8deb	0.99825925
31	0x3f7a9241	0.97879416
32	0x3f7bb1fd	0.98318464
33	0x3f800e85	1.0004431
34	0x3f7e8569	0.9942232
35	0x3f84cdb8	1.037528
36	0x3f7cccff	0.987503
37	0x3f8236ac	1.0172935
38	0x3f8033f3	1.0015854
39	0x3f7e17d5	0.99255115
40	0x3f81f412	1.0152609
41	0x3f805138	1.0024786
42	0x3f7c72a6	0.9861244
43	0x3f7f11ee	0.99636734
44	0x3f79c9d2	0.9757358
45	0x3f7c7a9b	0.9862458
46	0x3f82894a	1.0198147
47	0x3f7bccfc	0.98359656
48	0x3f77b937	0.9676699
49	0x3f7d7673	0.99008864
50	0x3f7bcb3d	0.9835699
51	0x3f8181fc	1.0117793
52	0x3f79d78b	0.9759452
53	0x3f842578	1.0323935
54	0x3f7976db	0.97446984
55	0x3f80454a	1.0021145
56	0x3f7aea35	0.9801362
57	0x3f82f9f8	1.0232534
58	0x3f7d0b44	0.98845315
59	0x3f7e1b09	0.9926
60	0x3f7cc9f8	0.9874568
61	0x3f7a0bd1	0.9767428
62	0x3f762f83	0.9616625
63	0x3f7e2207	0.9927067
64	0x3f7e8662	0.994238
65	0x3f81079f	1.0080451
66	0x3f7f1ba4	0.9965155
67	0x3f8255e7	1.0182465
68	0x3f816b50	1.0110874
69	0x3f7ae4c4	0.9800532
70	0x3f82fee3	1.0234035
71	0x3f800ced	1.0003945
72	0x3f826797	1.0187863
73	0x3f7db2b2	0.9910079
74	0x3f7d308f	0.9890222
75	0x3f7e628e	0.9936913
76	0x3f7f758e	0.9978875
77	0x3f7ac57e	0.979576
78	0x3f775f47	0.96629757
79	0x3f7cf60e	0.9881295
80	0x3f80df33	1.0068115
81	0x3f79edd9	0.9762855
82	0x3f7a46ff	0.9776458
83	0x3f7a7858	0.9783988
84	0x3f75a01b	0.95947427
85	0x3f824807	1.0178231
86	0x3f7839c4	0.96963143
87	0x3f7d5b16	0.9896711
88	0x3f797456	0.9744314
89	0x3f7aa619	0.97909695
90	0x3f7dea29	0.99185425
91	0x3f81bc4d	1.013559
92	0x3f812377	1.0088948
93	0x3f7e031d	0.992235
94	0x3f7d61d5	0.98977405
95	0x3f7f4f16	0.9973005
96	0x3f8354d0	1.0260258
97	0x3f77b2d2	0.96757233
98	0x3f7b118c	0.9807365
99	0x3f8185c1	1.0118943
100	0x3f84025a	1.0313218
101	0x3f84a889	1.0363933
102	0x3f7dbeaf	0.99119085
103	0x3f7c688a	0.98597014
104	0x3f7d2be8	0.9889512
105	0x3f7a2e7a	0.9772717
106	0x3f83cffa	1.0297844
107	0x3f7fda95	0.99942905
108	0x3f767ab1	0.9628096
109	0x3f82bc33	1.0213684
110	0x3f7a500f	0.9777841
111	0x3f7a182a	0.9769312
112	0x3f7d9c1e	0.9906634
113	0x3f84ad60	1.036541
114	0x3f82e4ad	1.0226036
115	0x3f7c9f53	0.9868061
116	0x3f7f6df6	0.9977716
117	0x3f83b640	1.0289993
118	0x3f859123	1.0434917
119	0x3f8089b4	1.0042024
120	0x3f7a3c9e	0.97748744
121	0x3f7a4944	0.97768044
122	0x3f828527	1.0196885
123	0x3f7dd637	0.9915499
124	0x3f7d6411	0.98980814
125	0x3f83d1dc	1.0298419
126	0x3f7e2bad	0.99285394
127	0x3f7c7cc6	0.9862789

network.1.bias f4 [128]
0	0xbd1b14e5	-0.037861723
1	0x3b4293d6	0.0029690168
2	0x3bc2d35f	0.0059456076
3	0xbd24edf3	-0.04026599
4	0x3c001a0a	0.007818708
5	0x3c260758	0.010133587
6	0x3915084f	0.00014212843
7	0xbcc30d64	-0.023810096
8	0xbbc6fe9b	-0.006072832
9	0xbc75c6e0	-0.015001029
10	0xbc2ef921	-0.010679514
11	0xbcd87831	-0.0264245
12	0xbc3e6d58	-0.011622749
13	0x3cf00b02	0.029302124
14	0xbce82d8c	-0.028342031
15	0xbc63079b	-0.013856794
16	0x3c857960	0.016293228
17	0xbba565d7	-0.0050475406
18	0x3bbaf2b7	0.0057052034
19	0x3c8346e8	0.016025022
20	0x3cca309b	0.02468138
21	0xbb9c01a1	-0.0047609364
22	0x3c640cc6	0.013919061
23	0x3cc92c19	0.02455716
24	0xbb213fda	-0.002460471
25	0xbd34d6f5	-0.04415031
26	0x3cee0d1a	0.029058982
27	0xbc28ab12	-0.010294693
28	0x3cddff11	0.027099164
29	0xbbdff246	-0.006834301
30	0xbd0f942e	-0.035053425
31	0xbc973c80	-0.018461466
32	0xbcb5e5a0	-0.02220422
33	0xbba9b4f7	-0.0051790434
34	0x3cb11376	0.021615725
35	0x3c9af9d9	0.018917965
36	0x3b2b6910	0.0026155151
37	0x3b610de4	0.0034340555
38	0x3c9d7308	0.01921989
39	0xbcbc9634	-0.023020841
40	0xbc05edb7	-0.008174351
41	0xbcba81a2	-0.022766892
42	0x3bc02f24	0.0058649946
43	0xbbbf5ddf	-0.0058400477
44	0xbc4eebec	-0.01262949
45	0x3be239b3	0.006903851
46	0x3cccaa76	0.024983626
47	0xbbadc20e	-0.005302674
48	0xbbc831b2	-0.00610944
49	0x3b4d8aa8	0.0031363163
50	0x3c64351b	0.013928677
51	0x3a652982	0.0008741842
52	0xbd2a7b49	-0.04162148
53	0x3c554760	0.013017505
54	0xb9ec5ad1	-0.0004508109
55	0xbc41ec08	-0.011836059
56	0x3a47b551	0.0007618266
57	0x3ce7910d	0.028267408
58	0xbb11003b	-0.0022125382
59	0xbc316eb1	-0.010829614
60	0x3b86be4b	0.00411204
61	0xbbddc196	-0.006767462
62	0xbd33e934	-0.04392357
63	0x3b52f638	0.0032190215
64	0xbbb19b24	-0.0054201055
65	0xbca50629	-0.020144539
66	0x3be49c97	0.006976675
67	0xbcf08d71	-0.02936432
68	0x3ca55631	0.0201827
69	0xbb47078c	-0.0030369489
70	0x3d094173	0.033509683
71	0x3cb8652e	0.022509184
72	0x3c76b015	0.01505663
73	0x3cf6c2e3	0.030122226
74	0xbcc503ee	-0.024049725
75	0x3bdaa282	0.0066722045
76	0x3d13b41f	0.03606045
77	0xbc4c8698	-0.0124832615
78	0xbcb001d2	-0.021485243
79	0xbcc3de39	-0.023909675
80	0xbc694515	-0.014237662
81	0xbc70e519	-0.014703059
82	0xbbd83aa4	-0.0065987874
83	0xbcde6bfb	-0.027151098
84	0xbd016db3	-0.031598758
85	0x3c132373	0.00898062
86	0xbd199201	-0.037492756
87	0xbd03fd8f	-0.032224234
88	0xbbfb0f54	-0.0076617394
89	0xbd0a4959	-0.033761356
90	0xbbe0145c	-0.0068383645
91	0xbad002e9	-0.0015870008
92	0x3abed3d8	0.0014558984
93	0x3c906997	0.017628474
94	0xbbcf9fdd	-0.006336196
95	0x3c3b4fcc	0.011432599
96	0x3c19225d	0.009346572
97	0xbd138987	-0.03601983
98	0xbb025c3f	-0.0019891409
99	0xbc0517a9	-0.008123317
100	0x3c173ffe	0.0092315655
101	0xb995af5e	-0.00028550153
102	0xbcdd388f	-0.027004508
103	0xbc007a3d	-0.007841644
104	0xbc0f632b	-0.008751671
105	0xbcb3df3a	-0.021957029
106	0x3d2b187e	0.041771404
107	0x3a3b4af1	0.0007144651
108	0xbcde1942	-0.027111653
109	0x3cca06cd	0.024661446
110	0xbc80c267	-0.015717698
111	0xbc7f321d	-0.015575913
112	0xbd1414f2	-0.036152788
113	0x3d3b2f83	0.045699608
114	0xbc9ede55	-0.019393126
115	0xbcabdb65	-0.020978639
116	0x3c0a16b4	0.008428264
117	0x3c8a06f0	0.016849011
118	0x3cb07b91	0.021543296
119	0x3a9f6760	0.0012161545
120	0x3ccdb42a	0.025110323
121	0xbd0b0a23	-0.033945214
122	0x3c0a98da	0.008459294
123	0x3c4e2024	0.012580905
124	0xbce195f1	-0.027537318
125	0x3d23b628	0.03996864
126	0x3c9ac68d	0.018893505
127	0xbc38d741	-0.011281789

network.1.running_mean f4 [128]
0	0xbddfa808	-0.10920721
1	0x3d9b65e9	0.07587797
2	0xbd12ffa8	-0.035888344
3	0x3d29d58a	0.041463412
4	0xbddd61aa	-0.108096436
5	0xbd8559cc	-0.06511268
6	0xbd5987fd	-0.053108204
7	0x3ca70575	0.020388344
8	0x3d5a035b	0.053225856
9	0x3de31f4d	0.110899545
10	0x3db4f312	0.088354245
11	0xbd34505d	-0.044021953
12	0xbdd91f0b	-0.10601624
13	0x3d92ba16	0.07164399
14	0x3dda9408	0.10672766
15	0x3d9a7955	0.075426735
16	0x3e00257c	0.12514299
17	0x3db54012	0.08850111
18	0xbd580f32	-0.052748866
19	0xbdcaf329	-0.0990966
20	0xbdc92303	-0.09821131
21	0x3bc795bd	0.0060908482
22	0x3c304f2d	0.0107610645
23	0xbda36638	-0.07978481
24	0xbde322cd	-0.11090622
25	0xbd75fa22	-0.060053
26	0x3c0bb353	0.008526641
27	0xbde5262e	-0.11188923
28	0xbdb338ae	-0.08751045
29	0xbd9444fb	-0.072397195
30	0xbcb7f7e7	-0.022457076
31	0xbda5945e	-0.080849394
32	0x3df80c38	0.121117055
33	0x3db18f31	0.0866989
34	0xbc40d0b8	-0.011768512
35	0xbd7da32e	-0.0619232
36	0x3de290ca	0.110627726
37	0x3d99b44a	0.075050905
38	0xbc9d6dc3	-0.019217378
39	0xbbf8f1fb	-0.0075972057
40	0xbdca2f04	-0.09872249
41	0x3d410774	0.04712625
42	0xbdb8d502	-0.09025003
43	0x3ddfa011	0.10919202
44	0x3ddff900	0.10936165
45	0xbdf2a2b8	-0.118474424
46	0x3dfdc8df	0.12391829
47	0x3dc15cf8	0.094415605
48	0xbdf9d5fa	-0.12199016
49	0xbdc3f579	-0.095683046
50	0x3dcc0493	0.0996181
51	0xbc440f46	-0.011966532
52	0xbdb96207	-0.090519
53	0xbd7e0a9d	-0.06202184
54	0xbdd6bb1a	-0.104849055
55	0x3ce45ce9	0.027876334
56	0x3dd2b9ab	0.102893196
57	0x3d52c1b8	0.051454276
58	0xbd89e3a7	-0.06732874
59	0x3cef5db3	0.029219484
60	0x3d957706	0.072980925
61	0xbd87da79	-0.06633467
62	0x3dac5d68	0.08416253
63	0x3c4cc9f6	0.012499323
64	0x3df0df7d	0.11761377
65	0x3c6491d5	0.013950785
66	0xbde63e5d	-0.112423636
67	0xbd47495a	-0.048653938
68	0x3df19603	0.117961906
69	0xbd85172d	-0.06498561
70	0xbd114f92	-0.035476275
71	0x3d1c6788	0.038184673
72	0x3dac8905	0.08424572
73	0xbd978a2e	-0.073994026
74	0x3dd2b0c0	0.10287619
75	0xbdd3275f	-0.10310244
76	0xbddf3c5a	-0.10900183
77	0xbd4565fa	-0.048192956
78	0x3cb1b918	0.021694705
79	0x3d2e218f	0.042512473
80	0x3dff2a8c	0.12459287
81	0xbd9251fb	-0.07144543
82	0xbd157daa	-0.036496796
83	0xbdb80f9f	-0.089873545
84	0x3de0cbf6	0.109764025
85	0xbccacdf0	-0.024756402
86	0x3dd788ff	0.10524177
87	0xbd0b115e	-0.03395211
88	0xbdaf51c7	-0.0856052
89	0x3daa0024	0.08300808
90	0x3d0ed8cf	0.034874734
91	0x3d0e6843	0.0347674
92	0xbc05c128	-0.008163728
93	0xbcd9b5ac	-0.026575886
94	0xbc8ac655	-0.016940275
95	0x3d35bb4c	0.044368073
96	0xbda71e9d	-0.08160136
97	0xbdffa976	-0.12483494
98	0xbd82bb0b	-0.06383332
99	0x3c177940	0.009245217
100	0xbc7cb3e2	-0.015423747
101	0xbdd8b0c3	-0.105805896
102	0xbd79e6f1	-0.06101126
103	0xbdc0f850	-0.09422362
104	0x3c97efd9	0.018546985
105	0xbda32044	-0.079651386
106	0xbdab1360	-0.08353305
107	0xbdbf7024	-0.09347561
108	0xbde4f07c	-0.11178681
109	0xbd066921	-0.032815102
110	0x3df8f8b2	0.1215681
111	0x3d841d52	0.06450905
112	0xbde450c8	-0.1114822
113	0x3c8dd9fc	0.017315857
114	0x3da3a3ed	0.07990251
115	0x3cd51dee	0.026015248
116	0x3ca742b7	0.020417554
117	0x3d5e57a1	0.05428279
118	0x3d251c0a	0.040309943
119	0x3ceba048	0.028762951
120	0x3dc86195	0.09784237
121	0xbdf8995a	-0.121386245
122	0x3d9cfafd	0.0766506
123	0xbafaab54	-0.0019124546
124	0x3dbbeb92	0.09175791
125	0xbd1d701b	-0.03843699
126	0x3dab9203	0.08377459
127	0xbdcbd25b	-0.099522315

network.1.running_var f4 [128]
0	0x3ebf6661	0.37382796
1	0x3f0778ef	0.52918905
2	0x3ed45c59	0.41476706
3	0x3e47032d	0.19434805
4	0x3e333a32	0.17502668
5	0x3e16baf0	0.14719748
6	0x3e8662e1	0.26247314
7	0x3eb9fa4d	0.36323777
8	0x3eb6b2c0	0.3568325
9	0x3ea9ccb6	0.33163995
10	0x3f26d54a	0.65169203
11	0x3e8f8ea3	0.2803851
12	0x3e486375	0.1956919
13	0x3e756fd8	0.23968446
14	0x3f213241	0.62967306
15	0x3e927876	0.2860753
16	0x3dfcae37	0.12337916
17	0x3e8f1cb3	0.27951583
18	0x3e849927	0.25898096
19	0x3f04fa62	0.51944554
20	0x3e3db94d	0.18527718
21	0x3f10ad5c	0.56514525
22	0x3e661204	0.2246781
23	0x3e448bf7	0.19194017
24	0x3ebe067a	0.37114316
25	0x3e456179	0.19275464
26	0x3e562ac6	0.20914754
27	0x3ef80faf	0.48449466
28	0x3e9c358d	0.30509606
29	0x3f31e5e7	0.6949143
30	0x3ec581ee	0.3857569
31	0x3f38ff63	0.7226469
32	0x3f4f1393	0.8088924
33	0x3eb9eda1	0.3631411
34	0x3e94e383	0.29079828
35	0x3ed0092c	0.40631998
36	0x3f35c209	0.709992
37	0x3e984993	0.29743633
38	0x3ed375e9	0.41300896
39	0x3f1447aa	0.5792185
40	0x3ebf61e6	0.37379378
41	0x3ea6948c	0.32535207
42	0x3e5c8acc	0.21537322
43	0x3e9f82aa	0.31154376
44	0x3ed6db37	0.41964123
45	0x3e4c2425	0.19935663
46	0x3e7655ad	0.2405612
47	0x3f4cc799	0.7999206
48	0x3ec195b9	0.37809542
49	0x3e9903c4	0.29885685
50	0x3e820cbd	0.25400344
51	0x3e47bf25	0.1950651
52	0x3e62d4a3	0.22151427
53	0x3ddc1e62	0.107479826
54	0x3f0707b4	0.5274613
55	0x3ede4994	0.4341551
56	0x3f171464	0.5901549
57	0x3e8e0800	0.2774048
58	0x3e428a0a	0.1899797
59	0x3f717cf5	0.94331294
60	0x3eaed319	0.3414543
61	0x3efa6706	0.48906726
62	0x3eba52e8	0.36391377
63	0x3f2a8bae	0.66619384
64	0x3efbecc8	0.49204087
65	0x3ea7a136	0.32740182
66	0x3ef58691	0.4795423
67	0x3f1e2b05	0.6178439
68	0x3ebc65c6	0.36796397
69	0x3efa059e	0.4883241
70	0x3e8be03f	0.27319524
71	0x3e901027	0.28137323
72	0x3e8f97ef	0.28045604
73	0x3e63cd2d	0.22246237
74	0x3e40bd0e	0.18822119
75	0x3e7953bb	0.24348347
76	0x3edfd75b	0.4371899
77	0x3e647119	0.22308768
78	0x3e412b72	0.1886423
79	0x3e9d826b	0.30763564
80	0x3e787e52	0.24266937
81	0x3ead188e	0.33807796
82	0x3e47dd8c	0.19518107
83	0x3e8f2c1c	0.2796334
84	0x3e4c2543	0.19936089
85	0x3e364859	0.17801036
86	0x3f7ca7cf	0.98693556
87	0x3e9dbc97	0.30807945
88	0x3f3a29d4	0.72720075
89	0x3f700d52	0.93770325
90	0x3e89cc72	0.26913792
91	0x3e4d4b70	0.20048308
92	0x3ec86cae	0.39145416
93	0x3ee8529a	0.4537552
94	0x3f52470b	0.8213965
95	0x3e44b9c6	0.19211492
96	0x3eb6c578	0.35697532
97	0x3f2eac19	0.6823135
98	0x3f07fac4	0.5311701
99	0x3e8287e0	0.2549429
100	0x3e769a10	0.24082208
101	0x3e867427	0.26260492
102	0x3f0e1afd	0.5550993
103	0x3eb2c656	0.34916943
104	0x3e341752	0.17587021
105	0x3f1c2727	0.6099724
106	0x3e731ae7	0.23740731
107	0x3e755168	0.23956835
108	0x3f6ce88a	0.92542326
109	0x3e5b1be9	0.21397366
110	0x3e9a5d10	0.30149126
111	0x3e42ae36	0.19011769
112	0x3e88982c	0.26678598
113	0x3e85d0c4	0.26135838
114	0x3e3559ae	0.17709991
115	0x3f10cb43	0.5656015
116	0x3e41dd94	0.18932182
117	0x3eb7536f	0.35805842
118	0x3eabf1f4	0.33583033
119	0x3ecd9019	0.40149
120	0x3e3ef3fc	0.1864776
121	0x3f1adf1b	0.6049668
122	0x3e77268b	0.24135797
123	0x3e9196c3	0.28435335
124	0x3e907de6	0.28221053
125	0x3e5c74ae	0.21528885
126	0x3e9ccee3	0.30626592
127	0x3e685d54	0.22691852

network.3.weight f4 [64, 128]
0	0x3d8c8c7b	0.06862732
1	0xbcaace3c	-0.020850293
2	0x3d708055	0.058716137
3	0xbd16d7e0	-0.03682697
4	0xbdfea0f3	-0.124330424
5	0x3b71e480	0.0036909878
6	0x3d5c28b7	0.053749766
7	0xbd855c96	-0.065118
8	0xbc71fa4f	-0.014769151
9	0xbba6cb35	-0.005090142
10	0x3c65fb73	0.014037001
11	0xbcc41623	-0.023936337
12	0x3ca0e791	0.01964167
13	0xbca387c0	-0.019962192
14	0x3bfa1ca1	0.0076328074
15	0x3d0521ad	0.03250282
16	0x3d4f2074	0.05056806
17	0x3d756839	0.059913848
18	0x3da92a65	0.08260039
19	0xbd2036a2	-0.039114602
20	0x3d5af79f	0.053458806
21	0xbd7864d7	-0.060643043
22	0x3b179e74	0.0023135217
23	0x3d5e47ef	0.05426782
24	0x3d1e7945	0.03868987
25	0xbd07565b	-0.03304134
26	0xbd82c9b1	-0.06386126
27	0xbd09ae4f	-0.0336135
28	0xbcf20109	-0.02954151
29	0x3bf1161a	0.007357371
30	0x3cbd549d	0.023111636
31	0xbd1ae437	-0.0378153
32	0x3cc99f6c	0.024612151
33	0x3dc38b8f	0.09548103
34	0x3d750699	0.059820745
35	0xbd9e0e44	-0.07717565
36	0xbd3fbc57	-0.046810474
37	0xb7a9d974	-2.024763e-05
38	0xbd98d9d3	-0.07463422
39	0x3d34ba1b	0.044122797
40	0xbd41bcdc	-0.04729925
41	0x3d957b98	0.07298964
42	0xbd15e791	-0.036597792
43	0xbd1d3f7b	-0.038390618
44	0xbdce2377	-0.10065358
45	0x3cd18752	0.025577221
46	0xbd71c3af	-0.05902451
47	0x3c94ed7c	0.018179648
48	0xbd751994	-0.059838846
49	0x3d8dc438	0.069221914
50	0xbdac2534	-0.084055334
51	0xbd339316	-0.043841444
52	0xbd254d22	-0.040356763
53	0xbd56e23d	-0.05246185
54	0x3c8518d4	0.01624719
55	0xbd2f96d2	-0.042868443
56	0x3cd04754	0.025424637
57	0xbda9f01a	-0.08297749
58	0xbc8b3385	-0.01699234
59	0xbd1619b2	-0.0366456
60	0xbccad8eb	-0.024761638
61	0xbd85096c	-0.06495938
62	0x3d327234	0.043565944
63	0xbdd876dd	-0.10569546
64	0xbd819541	-0.06327296
65	0xba3162d5	-0.0006766741
66	0xbca48032	-0.02008066
67	0xbbf4772a	-0.0074604945
68	0x3cdf5ea9	0.027266817
69	0x3d54df1e	0.051970594
70	0xbdae1f6e	-0.085020885
71	0xbdd2b7eb	-0.10288986
72	0xbdb13f25	-0.08654622
73	0xbb2d1dc9	-0.0026415458
74	0xbd0bc60c	-0.03412442
75	0x3d6c8e24	0.057752743
76	0xbcc28334	-0.023744203
77	0xbd0267df	-0.03183734
78	0x3d4995f6	0.04921528
79	0x3d62f494	0.05540903
80	0xbc9fcd6d	-0.019507134
81	0x3d679061	0.056534175
82	0x3d6e6cf0	0.05820936
83	0xbd46a5e9	-0.048498068
84	0xbbe401fa	-0.0069582434
85	0x3d4f138d	0.050555754
86	0xbd9bc5fd	-0.07606123
87	0x3b6b3211	0.0035887996
88	0x3d265432	0.04060764
89	0xbd491eb9	-0.049101565
90	0x3d8bbb6f	0.068228595
91	0x3d1f902a	0.038955845
92	0xbca9c9a5	-0.020726034
93	0x3abdb6b6	0.0014474008
94	0x3c87fbb2	0.01659951
95	0x3d85f2eb	0.065404736
96	0x3d4338fe	0.047661774
97	0x3b70093d	0.00366266
98	0x3ca4374c	0.020045899
99	0x3d470062	0.04858435
100	0xbcfc54af	-0.030802099
101	0xbc374c54	-0.011187632
102	0xbd76cf54	-0.060256317
103	0xbd950346	-0.07276015
104	0x3db0606d	0.08612142
105	0x3d676a28	0.056497723
106	0x3d20405a	0.03912387
107	0x3d022535	0.031773765
108	0x3d81d547	0.063395076
109	0x3b46d902	0.003034175
110	0x3c82b9be	0.01595771
111	0x3d396faf	0.045272525
112	0xbb03a93c	-0.0020089885
113	0xbdb2e35a	-0.0873477
114	0x3dc6c2db	0.097051345
115	0x3d6d75c8	0.057973653
116	0xbd100388	-0.035159618
117	0x3d4427a7	0.047889378
118	0xbc6c1e99	-0.014411592
119	0xbc8a20ec	-0.016861401
120	0xbd0db88c	-0.034599826
121	0x3ca39e88	0.019973055
122	0x3db855fd	0.09000776
123	0x3cdfadf5	0.027304629
124	0x3d42bdc0	0.04754424
125	0x3d950f56	0.07278316
126	0x3d46289c	0.048378572
127	0x3d950f7a	0.072783425
128	0x3d85e3ef	0.065376155
129	0xbd1232ec	-0.035693094
130	0x3d1b67ad	0.03794067
131	0x3d6e532b	0.058184784
132	0x3c90762e	0.017634477
133	0xbcd40a49	-0.02588381
134	0xbda907d1	-0.08253444
135	0x3d75a31a	0.05997
136	0x3b1aa896	0.002359902
137	0xbd321b84	-0.043483272
138	0x3db718d8	0.089402854
139	0x3cd85be4	0.026411004
140	0x3d3d700a	0.046249427
141	0x3cf5d18c	0.030007146
142	0xbd30203d	-0.042999495
143	0x3d9200eb	0.07129081
144	0xbd4f4058	-0.050598472
145	0x3d219e0f	0.039457377
146	0xbd59d912	-0.05318553
147	0xbd8acc52	-0.06777252
148	0x3d1e89fe	0.03870582
149	0x3be40fd5	0.006959895
150	0x3d0e4455	0.034733135
151	0xbc3d5e9a	-0.011558199
152	0xbd94ca6b	-0.07265171
153	0x3d8372bb	0.064183675
154	0x3dd46501	0.103708275
155	0xbd80867d	-0.062756516
156	0xbd666371	-0.05624718
157	0xbcbc1d3b	-0.022963157
158	0xb9ab1be3	-0.0003263644
159	0xbd8b8eb5	-0.068143286
160	0x3d2e5e1f	0.04257023
161	0xbd443488	-0.04790166
162	0xbb132363	-0.0022451512
163	0xbc8306b1	-0.015994402
164	0x3c262f32	0.010143088
165	0xbd6a7ff4	-0.05725093
166	0x3c124c49	0.008929321
167	0x3d900bf6	0.07033531
168	0xbc1f2321	-0.009712965
169	0xbdb568ae	-0.08857857
170	0x3cd667ef	0.026172606
171	0xbca0a276	-0.019608717
172	0xbd13bf53	-0.036071133
173	0x3c845223	0.016152447
174	0x3cda3898	0.026638314
175	0x3d02ed5f	0.031964656
176	0x3d57b6c7	0.052664544
177	0x3cfdada0	0.03096658
178	0xbd384c80	-0.04499483
179	0x3d408eb8	0.047011107
180	0xbd664247	-0.05621555
181	0x3bc7ca9b	0.0060971505
182	0xbb7fb389	-0.0039016923
183	0xbd0e97a3	-0.03481258
184	0x3d316f73	0.043319177
185	0x3d80b64f	0.062847726
186	0x3d3609f5	0.04444309
187	0xbc823d5c	-0.015898399
188	0x3d272157	0.04080328
189	0xbd9b1d4e	-0.07573949
190	0xbc31723f	-0.010830461
191	0xbca11f9f	-0.019668398
192	0x3d312af1	0.043253843
193	0xbc2baf4b	-0.010478805
194	0x3d48b942	0.0490048
195	0xbd820d07	-0.06350141
196	0xbd9e36cf	-0.07725298
197	0xbd639d4c	-0.055569932
198	0x3d1a35dc	0.03764902
199	0x3d23c3d2	0.03998167
200	0xbc2e710d	-0.010647071
201	0xbd104a0b	-0.035226863
202	0x3d57e578	0.052709073
203	0x3cce733f	0.025201438
204	0xba11a5e1	-0.0005556029
205	0x3d9698f2	0.07353391
206	0xbce7642c	-0.028246008
207	0xbcc2ada2	-0.023764435
208	0x3d26b9fc	0.040704712
209	0x3c6282a1	0.01382509
210	0xbc2fa7da	-0.010721171
211	0x3cbb727d	0.02288174
212	0x3c480ea2	0.01221052
213	0xbc8c331a	-0.01711421
214	0xbc1d5515	-0.009602805
215	0x3d0930d3	0.033493828
216	0xbd302a32	-0.04300899
217	0xbd25817c	-0.04040669
218	0x3d458a24	0.048227444
219	0xbcb416b9	-0.021983491
220	0x3dbc4eee	0.09194742
221	0xbce608e2	-0.028080408
222	0xbdf28361	-0.11841465
223	0x3c8dccf1	0.017309638
224	0xbda97e38	-0.082760274
225	0xbc274448	-0.010209151
226	0xbd240d3a	-0.040051676
227	0xbdd9020d	-0.10596094
228	0xbbe0920b	-0.006853347
229	0x3d8a6c3a	0.06758924
230	0x3cc09150	0.02350679
231	0xbb983432	-0.004644894
232	0xbd309e1c	-0.043119535
233	0xbce2df9d	-0.027694518
234	0x3c697e51	0.014251308
235	0x3d22acf0	0.039715707
236	0x3d118501	0.035527233
237	0xbbd6538c	-0.0065407213
238	0x3c27d029	0.0102425
239	0xbd853571	-0.06504334
240	0xbd6f8361	-0.058474902
241	0x3dabeb2e	0.08394466
242	0x3d22beed	0.039732862
243	0x3d4bc50d	0.04974847
244	0x3d216b16	0.039408766
245	0x3d05e2f4	0.032687142
246	0xbcf26542	-0.0295893
247	0x3da5cd76	0.08095829
248	0xbd2899c5	-0.04116227
249	0xbc3f903a	-0.011692101
250	0xbdd8867e	-0.10572527
251	0xbd1859b0	-0.037194908
252	0x3d739fe1	0.059478644
253	0xbd94418f	-0.07239067
254	0x3b80b386	0.003927651
255	0x3d5c10ff	0.053727146

network.3.bias f4 [64]
0	0xbd47c84c	-0.048775002
1	0x3c491cd0	0.012274936
2	0xbc57cc74	-0.013171304
3	0xbd492200	-0.04910469
4	0x3c8ec271	0.017426701
5	0xbd0c60b7	-0.034271922
6	0xbda54aab	-0.080708824
7	0x3ca14848	0.019687787
8	0xbc14e098	-0.00908675
9	0xbdb23b10	-0.087026715
10	0x3c916b13	0.017751252
11	0xbc172aa9	-0.00922648
12	0xbd79c615	-0.06097992
13	0x3d780e35	0.060560424
14	0x3b6945f2	0.003559467
15	0x3c67784c	0.014127802
16	0xbc3ba0ab	-0.01145188
17	0xbda808ae	-0.082047805
18	0x3d5b178f	0.053489264
19	0xbd3d9be9	-0.046291266
20	0xbd678ed0	-0.05653268
21	0xbd47807e	-0.048706524
22	0xbd9c161d	-0.07621405
23	0x3c60420e	0.013687624
24	0xbd92ccdc	-0.0716798
25	0xbbebcb0f	-0.0071958373
26	0xbd515b8b	-0.051112693
27	0x3db228ac	0.08699164
28	0xbcaff83e	-0.021480676
29	0x3d65ddbb	0.05611966
30	0xbd9eff8e	-0.07763587
31	0xbd61b53b	-0.055104475
32	0x3db2db74	0.087332636
33	0x3b57841d	0.0032885142
34	0x3d8b3a8b	0.067982756
35	0x3d99b128	0.07504493
36	0xbd85865d	-0.065197684
37	0xbd89c3c4	-0.067267925
38	0xbd6daf4f	-0.058028515
39	0x3d98b2a5	0.07455949
40	0xbc351eff	-0.011054753
41	0x3cadcc55	0.021215597
42	0x3daaf183	0.08346846
43	0x3d83c7dc	0.064346045
44	0x3c47ad05	0.012187247
45	0xbc451aae	-0.012030287
46	0xbd7a8bc1	-0.061168436
47	0x3d648c65	0.055797953
48	0xbda16b2a	-0.07881768
49	0x3cab1305	0.020883093
50	0x3d869ca0	0.065728426
51	0x3c29ace2	0.01035616
52	0x3dae479c	0.08509752
53	0x3cfa82c4	0.030579932
54	0xbd513eaa	-0.05108515
55	0x3cb848e1	0.022495689
56	0xbda1bf86	-0.07897858
57	0xbd6715ed	-0.056417394
58	0xbbd38dff	-0.0064561362
59	0x3d4cbc6d	0.049984384
60	0x3d02cc94	0.031933382
61	0xbcc72289	-0.02430846
62	0xbd64edc9	-0.055890832
63	0x3d63945d	0.055561412

network.4.weight f4 [64]
0	0x3f7f3353	0.9968769
1	0x3f8028e6	1.0012481
2	0x3f80c5bc	1.0060344
3	0x3f842557	1.0323895
4	0x3f821ac1	1.0164415
5	0x3f808725	1.0041243
6	0x3f820af4	1.0159593
7	0x3f83b417	1.0289334
8	0x3f7eafe9	0.9948717
9	0x3f80d3ac	1.0064597
10	0x3f83d1bf	1.0298384
11	0x3f80b721	1.0055887
12	0x3f82f60f	1.0231341
13	0x3f8539cf	1.0408267
14	0x3f84bd5d	1.0370289
15	0x3f8298e0	1.0202904
16	0x3f7bad3d	0.98311216
17	0x3f7c0a29	0.98453003
18	0x3f83595f	1.0261649
19	0x3f80b8c4	1.0056386
20	0x3f7b0477	0.9805369
21	0x3f83c407	1.0294198
22	0x3f8136ce	1.009485
23	0x3f835123	1.0259136
24	0x3f84ca4f	1.037424
25	0x3f820aa9	1.0159503
26	0x3f809165	1.0044371
27	0x3f7f1847	0.9964642
28	0x3f845e6a	1.0341313
29	0x3f822199	1.0166503
30	0x3f7f18e8	0.9964738
31	0x3f83cfe6	1.029782
32	0x3f845a96	1.0340145
33	0x3f8215f5	1.0162951
34	0x3f801af9	1.0008231
35	0x3f842c60	1.0326042
36	0x3f83afa4	1.0287976
37	0x3f7da430	0.99078655
38	0x3f83f98c	1.0310531
39	0x3f84a347	1.0362328
40	0x3f7d2f9d	0.9890078
41	0x3f7b9e19	0.9828811
42	0x3f7e3bb5	0.99309856
43	0x3f7c0eb4	0.98459935
44	0x3f85bcb6	1.0448215
45	0x3f84b034	1.0366273
46	0x3f811781	1.0085298
47	0x3f843cf4	1.0331101
48	0x3f78b0ea	0.9714495
49	0x3f8401ef	1.031309
50	0x3f82c088	1.0215006
51	0x3f83e81a	1.0305207
52	0x3f813101	1.009308
53	0x3f825e28	1.0184984
54	0x3f8371a1	1.0269052
55	0x3f7979ef	0.9745168
56	0x3f8342a5	1.0254713
57	0x3f7a72ab	0.9783122
58	0x3f7b4973	0.9815895
59	0x3f8028a0	1.0012398
60	0x3f845f50	1.0341587
61	0x3f7f1f4f	0.9965715
62	0x3f763de2	0.96188176
63	0x3f8003c1	1.0001146

network.4.bias f4 [64]
0	0xbc8363ef	-0.016038863
1	0x3b650b3f	0.003494933
2	0x3bd336ae	0.0064457273
3	0x3c99a309	0.018754499
4	0x3bef1d67	0.007297206
5	0xb9426540	-0.00018539
6	0xbae49d20	-0.0017441846
7	0x3c395927	0.0113127595
8	0xbb601198	-0.0034190174
9	0xbca448ba	-0.02005421
10	0x3c950edc	0.018195562
11	0xbb266122	-0.0025387486
12	0x3c16ddd7	0.009208164
13	0x3bfbf657	0.007689278
14	0x3c7519c0	0.014959753
15	0x3c4a7582	0.012357118
16	0xbc500752	-0.012697058
17	0xbc3b97bc	-0.0114497505
18	0x3a96afe6	0.0011496514
19	0x3b02c712	0.001995508
20	0xbc9f2558	-0.019426987
21	0x3bf2a4b3	0.0074048876
22	0x3b8dc987	0.0043270024
23	0x3b8d4fae	0.004312477
24	0x3c50a668	0.012734987
25	0x3c085c9d	0.008322862
26	0xbc9a5f06	-0.018844139
27	0xbc63b270	-0.013897523
28	0x3bcc841d	0.006241335
29	0xbb3c3741	-0.0028719457
30	0xbcc5f100	-0.02416277
31	0x3c8eeeb5	0.017447809
32	0x3cbb9c82	0.022901777
33	0x3c3d580d	0.0115566375
34	0xbcfd7d0f	-0.030943422
35	0x3c896c98	0.016775414
36	0x3c69b7de	0.014265029
37	0x3b6ae1e6	0.0035840212
38	0x3c3bfe62	0.011474224
39	0x3c97cea6	0.018531155
40	0xbc3f0053	-0.011657792
41	0xbc11f386	-0.008908158
42	0xbcbe5551	-0.023234041
43	0xbc1a6c77	-0.009425274
44	0x3c4c1c08	0.012457855
45	0x3c83596a	0.016033847
46	0x3b7ada96	0.003827726
47	0xbc5fcfb5	-0.013660361
48	0xbcb4cba7	-0.022069765
49	0x3c57789c	0.013151314
50	0x3c194486	0.009354716
51	0x3c61f8cd	0.013792229
52	0xbc4efc7e	-0.012633441
53	0xbbec2847	-0.00720695
54	0x3c53a7e3	0.012918445
55	0xbcc3c784	-0.023898847
56	0xba372a75	-0.00069872226
57	0xbcd88a30	-0.02643308
58	0xbc3c7620	-0.011502773
59	0xbb79ef75	-0.0038137112
60	0x3c65117e	0.013981221
61	0xbb092151	-0.00209244
62	0xbd1cb1bc	-0.03825544
63	0xbc8cf862	-0.017208282

network.4.running_mean f4 [64]
0	0xbd17cb3c	-0.037059054
1	0xbb10bcac	-0.0022085113
2	0xbe80ad38	-0.25132155
3	0x3df7edd8	0.12105912
4	0x3dde30dc	0.10849163
5	0xbe0e72bc	-0.13910955
6	0x3d69e4bd	0.057102907
7	0x3e0971a8	0.13422263
8	0x3ce0e3c4	0.027452357
9	0x3e098c74	0.13432485
10	0x3ca46d7b	0.020071736
11	0xbe3bf75c	-0.18356079
12	0xbeabfae3	-0.3358985
13	0x3dc28a6f	0.0949906
14	0xbe816491	-0.2527204
15	0x3e4f22ba	0.20228091
16	0x3f2f347d	0.68439466
17	0xbdd73089	-0.10507304
18	0x3e0aceb4	0.13555413
19	0xbe2424dc	-0.16029686
20	0xbe8ad39c	-0.2711457
21	0x3ebbf096	0.3670699
22	0xbccc10da	-0.02491038
23	0xbe611afd	-0.21982951
24	0xbd4bb801	-0.049736027
25	0xbdf4f85c	-0.11961433
26	0xbd897637	-0.06712001
27	0x3e4db0a5	0.20086916
28	0x3d97b955	0.07408396
29	0x3c24d36a	0.010060171
30	0x3e141921	0.14462711
31	0xbcba6303	-0.02275229
32	0x3dd8441a	0.10559864
33	0x3daed09c	0.08535883
34	0x3eb573aa	0.35439807
35	0xbe3b7078	-0.18304622
36	0xbe686aa7	-0.22696935
37	0xbcab6b2b	-0.020925125
38	0xbea37932	-0.31928402
39	0x3c1fd751	0.009755925
40	0x3ec0eb37	0.37679455
41	0x3dd4d64f	0.103924386
42	0xbe0b7aa0	-0.13620996
43	0x3e4c3107	0.19940577
44	0x3da9778c	0.08274755
45	0x3b4bfc89	0.0031125864
46	0x3eeef2fa	0.4666975
47	0x3da975dc	0.08274433
48	0xbec87f3e	-0.39159578
49	0xbde9b154	-0.11410776
50	0x3e107c64	0.14109951
51	0x3dbb326c	0.091404766
52	0xbe1d90aa	-0.15387216
53	0x3e897c73	0.2685276
54	0xbd1bc0dc	-0.038025722
55	0xbdd651a9	-0.10464794
56	0xbec7d9e4	-0.39033425
57	0xbdfbc20c	-0.12292871
58	0xbeaab0b2	-0.33337933
59	0x3ccb3e84	0.024810083
60	0x3db85b4b	0.09001788
61	0x3ebc579d	0.36785594
62	0xbe0fd9ad	-0.1404788
63	0x3e3b22f5	0.18275054

network.4.running_var f4 [64]
0	0x3e12ffeb	0.14355437
1	0x3e1672c3	0.14692216
2	0x3e0b4bcf	0.13603137
3	0x3e3045b6	0.17214093
4	0x3e2f748e	0.17134306
5	0x3de530c0	0.11190939
6	0x3e2ec857	0.17068611
7	0x3e0aa405	0.13539131
8	0x3e100749	0.14065279
9	0x3df463fc	0.11933133
10	0x3e2e176c	0.17001122
11	0x3e06277d	0.13101001
12	0x3e2be59d	0.1678681
13	0x3e10f296	0.14155039
14	0x3dcf668e	0.10126983
15	0x3e143539	0.14473428
16	0x3e084238	0.1330651
17	0x3e6035fe	0.21895596
18	0x3e2b6b21	0.16740085
19	0x3e8060c6	0.25073832
20	0x3e2a8797	0.16653286
21	0x3e01535c	0.12629455
22	0x3e4c445f	0.19947957
23	0x3e060bcc	0.13090438
24	0x3e251d49	0.16124453
25	0x3e12d9f3	0.14340954
26	0x3e08e0d5	0.13367017
27	0x3dd5c713	0.10438361
28	0x3e0ef805	0.139618
29	0x3dafb837	0.08580058
30	0x3e2864d4	0.16444713
31	0x3e088a9a	0.13334122
32	0x3e035483	0.12825207
33	0x3e33f83e	0.17575166
34	0x3e06f3a9	0.13178886
35	0x3da95a8e	0.08269225
36	0x3deef7e0	0.11668372
37	0x3e38173c	0.17977613
38	0x3e2c5be3	0.16831927
39	0x3e10932a	0.14118639
40	0x3e716c53	0.23576479
41	0x3e5295f9	0.20565023
42	0x3e0c134d	0.13679238
43	0x3e3a87ea	0.1821591
44	0x3db31019	0.08743305
45	0x3e118731	0.14211728
46	0x3e320d53	0.17387895
47	0x3da41f6f	0.08013808
48	0x3e34c0d5	0.17651685
49	0x3e10e263	0.1414886
50	0x3e39df1b	0.18151514
51	0x3ded3aca	0.11583479
52	0x3dcdd110	0.10049641
53	0x3db75fda	0.08953829
54	0x3e143576	0.14473519
55	0x3e0ab027	0.1354376
56	0x3d9c1765	0.0762165
57	0x3dd04c46	0.10170798
58	0x3e08ec5b	0.13371412
59	0x3e52046a	0.20509496
60	0x3e21df9c	0.15807956
61	0x3deaac20	0.114586115
62	0x3dd5bb70	0.104361415
63	0x3ded96ef	0.11601054

network.6.weight f4 [64, 64]
0	0x3dcf40c0	0.10119772
1	0xbc5dae22	-0.013530286
2	0x3d3b8c86	0.04578831
3	0xbd7ddbda	-0.061977245
4	0xbce1d10b	-0.0275655
5	0xbdd14378	-0.10217947
6	0x3ce2d151	0.0276877
7	0x3e07152a	0.13191667
8	0xbd74527e	-0.059648983
9	0xbdc0b504	-0.09409526
10	0xbd6c392b	-0.057671707
11	0x3d3b2d4b	0.04569749
12	0x3dc101f7	0.09424203
13	0xbba712c8	-0.0050986744
14	0x3d487a93	0.04894502
15	0xbc1240cd	-0.0089265825
16	0x3dc1391b	0.0943472
17	0xba997c4e	-0.0011710019
18	0x3e1208ca	0.14261165
19	0xbdc1c7f7	-0.094619684
20	0x3d280037	0.04101583
21	0xbd8d5a83	-0.06902029
22	0x3e0339d0	0.12815022
23	0x3cac0a64	0.021001048
24	0x3dc6fb92	0.09715952
25	0x3d818528	0.06324226
26	0xbdb9a4de	-0.09064649
27	0x3d3e060a	0.046392478
28	0x3e06a417	0.13148533
29	0x3d2a6a01	0.041605
30	0xbcdc26d0	-0.026873976
31	0x3d89b178	0.067233026
32	0x3df1831a	0.11792584
33	0xbe095553	-0.13411455
34	0xbceeefed	-0.02916714
35	0x3e1f1851	0.1553662
36	0x3dd1d2d9	0.10245294
37	0xbd379215	-0.04481705
38	0x3c0966c9	0.008386322
39	0x3d7bbdbe	0.06146025
40	0x3db719b6	0.08940451
41	0x3d9f33b1	0.07773531
42	0x3d39f80b	0.045402568
43	0xbdd5773b	-0.10423132
44	0x3d009813	0.03139503
45	0xbd397e32	-0.045286365
46	0xbcc15107	-0.023598207
47	0xbcde7312	-0.02715448
48	0x3d57db99	0.05269966
49	0x3e0fa484	0.14027601
50	0xbd2035c4	-0.039113775
51	0x3d6fe321	0.058566216
52	0xbd013746	-0.031546853
53	0xbd03b307	-0.032153156
54	0xbca75d08	-0.020430103
55	0xbcd7e695	-0.026355067
56	0x3da02669	0.07819826
57	0x3dafca94	0.085835606
58	0xbcc00f67	-0.023444844
59	0xb8bc6287	-8.982891e-05
60	0x3e250111	0.16113688
61	0xbd64a4d0	-0.05582124
62	0xbcadae88	-0.021201387
63	0x3d2bd15e	0.041947715
64	0x3dc41d87	0.095759444
65	0xbcee3d49	-0.029081957
66	0xbd3e58ae	-0.04647129
67	0xbc8219a6	-0.01588137
68	0xbd208c09	-0.039196048
69	0xbc0aa6d8	-0.00846263
70	0x39db8b3f	0.00041874681
71	0xbd89e3b5	-0.06732885
72	0xbc07682b	-0.008264582
73	0xbd3a609c	-0.04550229
74	0x3e027c8d	0.12742825
75	0xbc5a70d1	-0.013332562
76	0x3d97fc23	0.07421138
77	0x3e18aff3	0.1491087
78	0x3ae18209	0.0017204891
79	0x3e0c7f9b	0.13720553
80	0x3d3e17b7	0.046409335
81	0xbd58fd9b	-0.052976232
82	0xbd1bd4c4	-0.038044706
83	0xbe1b014d	-0.15137215
84	0xbd588044	-0.0528567
85	0x3d59f3a7	0.05321088
86	0x3e0764fe	0.13222119
87	0x3da1a098	0.07891959
88	0x3b31d5bf	0.002713546
89	0xbc935045	-0.017982611
90	0xbccd35f0	-0.025050133
91	0x3c6952ee	0.014240963
92	0x3e0a77b5	0.13522227
93	0xbd45fec7	-0.048338678
94	0xbd20b608	-0.0392361
95	0xbc49d033	-0.012317705
96	0x3d7b1772	0.061301656
97	0xbc3de028	-0.011589088
98	0x3dc577f6	0.09642021
99	0x3ce8e1a8	0.028427914
100	0x3d207615	0.03917511
101	0xbd5a5aca	-0.05330924
102	0x3e015203	0.12628941
103	0x3d307a15	0.043085176
104	0xbc746222	-0.014915975
105	0xbde62a92	-0.112385884
106	0xbcd9712c	-0.026543222
107	0x3c825087	0.015907539
108	0x3d167681	0.036734108
109	0xbd1755a6	-0.036946915
110	0x3dc5d62e	0.09659992
111	0x3d383bad	0.044978786
112	0x3c3c60a8	0.011497654
113	0x3d2b09d4	0.04175742
114	0xbd5e7b62	-0.054316886
115	0x3dfab009	0.12240607
116	0x3d527ced	0.05138867
117	0x3d2a1171	0.04152054
118	0xbdc691d8	-0.09695786
119	0xbdb539f8	-0.08848947
120	0x3e09439c	0.13404697
121	0x3d9eda42	0.07756473
122	0x3d4163ce	0.04721432
123	0x3d3bd1b7	0.045854297
124	0x3da964ce	0.0827118
125	0x3e03559f	0.1282563
126	0xbd33c903	-0.04389287
127	0x3ddb94e3	0.10721757
128	0xbd005ebd	-0.03134035
129	0xbe01c991	-0.12674548
130	0x3dc72565	0.09723929
131	0xbc0046a2	-0.00782934
132	0x39ef55c9	0.00045649547
133	0xbd79d48a	-0.06099371
134	0x3ca775e5	0.020441959
135	0x3e097949	0.13425173
136	0xbd9d0609	-0.07667167
137	0xbc32c11c	-0.010910299
138	0x3d30bb35	0.043147285
139	0x3d271643	0.040792715
140	0x3db1c933	0.08680954
141	0x3c99b55c	0.018763237
142	0x3e1e320d	0.1544878
143	0x3dac957a	0.08426948
144	0xbd5113b8	-0.051044196
145	0xbd734c69	-0.059399042
146	0x3e0b8afd	0.13627239
147	0xbdbcc221	-0.09216715
148	0xbc59f3eb	-0.0133027835
149	0x3c8259a0	0.015911877
150	0x39d8d7b5	0.00041359445
151	0xbd2c6b80	-0.042094707
152	0xbd6d32d0	-0.057909787
153	0x3d81f140	0.06344843
154	0xbbd92907	-0.0066272053
155	0xbd5478c9	-0.051873002
156	0x3cac96eb	0.021068057
157	0x3d2b282e	0.041786365
158	0x3b136032	0.0022487757
159	0x3de19a30	0.11015737
160	0x3dfd1c50	0.12358916
161	0xbdfa5550	-0.12223303
162	0xbbf7ad03	-0.0075584664
163	0x3e0dfd6f	0.13866208
164	0x3de3d35a	0.111242965
165	0x3d266d57	0.04063162
166	0xbb831257	-0.003999989
167	0x3d7e36fc	0.062064156
168	0x3e0790b1	0.13238789
169	0x3ca50507	0.020143999
170	0x3d81d4f5	0.063394465
171	0xbd9f8ffd	-0.077911355
172	0xbc3ca4cd	-0.011513901
173	0x3df7f711	0.12107671
174	0xbdb11b59	-0.08647794
175	0xbd1c757b	-0.038197976
176	0xbd75cd7d	-0.060010422
177	0x3e17665a	0.14785138
178	0x3e0e27cf	0.13882373
179	0x3dca6b37	0.09883731
180	0xbc8147b7	-0.015781267
181	0x3bde51f6	0.006784673
182	0x3e0cca3e	0.13749024
183	0xbd8a1c3e	-0.06743668
184	0x3c906c97	0.017629905
185	0xbd72b8b1	-0.059258167
186	0x3de3e4e9	0.111276455
187	0xbd8386fd	-0.06422231
188	0x3e18edcb	0.14934461
189	0xbd5a3eff	-0.053282734
190	0x3dcc6ea3	0.0998204
191	0x3e0bc2cf	0.13648532
192	0x3dbbc7d3	0.09168973
193	0xbdb3ac56	-0.08773105
194	0x3db45c76	0.08806698
195	0xbd911af1	-0.07085217
196	0xbdea1efd	-0.11431692
197	0x3dd6ab40	0.10481882
198	0x3d378285	0.044802207
199	0xbd6488be	-0.05579447
200	0xbc56dc18	-0.013113998
201	0x3c4b0ab0	0.012392685
202	0x3d832a74	0.06404582
203	0xbdfa887e	-0.12233065
204	0xbd9093b3	-0.070594214
205	0x3da30223	0.07959392
206	0x3dcbc50f	0.09949695
207	0xbc423c31	-0.011855171
208	0xbd6a542e	-0.057209186
209	0xbe0356c9	-0.12826075
210	0x3d9d5b3c	0.07683417
211	0x3d01fe7a	0.03173683
212	0xbdc7590e	-0.09733783
213	0xbbce6dbc	-0.0062997025
214	0xbde33a38	-0.11095089
215	0xbdf1bf12	-0.11804022
216	0x3d8cdabe	0.06877659
217	0xbdcd9208	-0.10037619
218	0x3d52cbd6	0.051463924
219	0x3bd7f3d6	0.006590347
220	0xbcd4e4fc	-0.025988095
221	0xbbf04676	-0.0073326183
222	0xbde3ef5d	-0.11129639
223	0xbe06f8d6	-0.13180861
224	0xbd6efb42	-0.058345087
225	0x3dd2872a	0.10279687
226	0x3d6f88ca	0.05848006
227	0x3cf2a9f0	0.029622048
228	0x3c57cb61	0.013171048
229	0x3dd10281	0.10205556
230	0x3d83dab6	0.064382
231	0x3d60ea7a	0.054911114
232	0x3d8ca676	0.068676874
233	0x3acd1af9	0.0015648297
234	0xbd598f23	-0.05311502
235	0xbdeeaab5	-0.116536535
236	0xbcb6fafe	-0.02233648
237	0xbdcefc3e	-0.10106705
238	0xbc672a55	-0.014109214
239	0x3cd8e49d	0.026476199
240	0xbd611bc5	-0.054958124
241	0xbc13f8e6	-0.00903151
242	0x3db70541	0.08936549
243	0xbda0c7f4	-0.07850638
244	0x3aed08c7	0.0018084281
245	0xbe094c5b	-0.13408034
246	0x3cbbfefb	0.022948733
247	0x3da76cbc	0.08175036
248	0xbd756e38	-0.059919566
249	0xbbd87b1e	-0.0066064736
250	0x3dc491f3	0.0959815
251	0xbd4fd917	-0.050744142
252	0x3cb4fc66	0.02209301
253	0xbcbc3044	-0.022972234
254	0xbca89bad	-0.020582044
255	0x3dcc9f96	0.09991376

network.6.bias f4 [64]
0	0x3e03a925	0.12857492
1	0x3d05bc60	0.03265035
2	0x3e05ccee	0.13066456
3	0xba872dcb	-0.001031333
4	0x3cb4157d	0.021982903
5	0xbcabcbb1	-0.020971151
6	0xbd198273	-0.03747792
7	0x3da50717	0.08057993
8	0xbe017dad	-0.12645598
9	0x3cc6e170	0.024277419
10	0xbd87807f	-0.066163056
11	0xbdb90d49	-0.09035737
12	0x3de8d462	0.11368634
13	0xbcc0f2f6	-0.023553353
14	0xbdcc5b82	-0.09978391
15	0x3c950d42	0.018194798
16	0xbd1183ed	-0.035526205
17	0x3cccf161	0.025017442
18	0x3dd549e9	0.10414488
19	0x3c9af29c	0.018914513
20	0x3b72ec29	0.0037067032
21	0x3dcf97bd	0.10136364
22	0x3dba8869	0.091080494
23	0x3d56012a	0.052247204
24	0xbde4e23d	-0.11175964
25	0x3c7c3dcb	0.015395592
26	0x3dc62342	0.09674694
27	0x3d884bdf	0.06655096
28	0x3dde9cb8	0.108697355
29	0xbda2bb0e	-0.07945834
30	0xbc555f8c	-0.013023268
31	0x3da6fc8e	0.0815364
32	0xbd41da7d	-0.047327507
33	0x3cecf691	0.028926166
34	0xbc0a2b7f	-0.008433222
35	0x3e06e376	0.13172707
36	0x3d95ad15	0.073084034
37	0x3d508d9d	0.050916303
38	0x3ccc9e70	0.024977893
39	0x3d51ebb1	0.051250163
40	0x3da78b80	0.081809044
41	0x3d088018	0.033325285
42	0x3d83cbfb	0.064353906
43	0x3db12ae9	0.086507626
44	0x3d929efc	0.0715923
45	0xbc453be7	-0.012038208
46	0xbd8f538f	-0.069983594
47	0x3ce2565a	0.027629066
48	0xbd5ff95d	-0.05468117
49	0xbd968d61	-0.07351185
50	0x3d946f25	0.07247762
51	0xbdfd1857	-0.12358158
52	0x3de29d02	0.11065103
53	0xbdd20a66	-0.102558896
54	0xbd2b0400	-0.04175186
55	0xbd1262c4	-0.03573872
56	0xbdb30017	-0.087402515
57	0xbca7ff37	-0.020507438
58	0xbd5a1d85	-0.05325081
59	0xbd5dee36	-0.054182254
60	0x3ccf19c8	0.025280848
61	0x3d12a269	0.035799418
62	0xbdeacf3b	-0.11465307
63	0xbd160d46	-0.036633752
